data/weights/complex_mlp_weights_2.npz (npz, 824050 bytes, 6 tensors)

W0 f8 [768, 128]
-0.007993002821026501 0.017102499458042306 0.002557836269231238 0.0034467496833837158 0.01018386297778265 -0.008049352627473976 0.0031992356893561554 0.00032187853372870234
-0.008479183272080542 -0.0037281377941748195 -0.005130823920786276 -0.010675663375745048 0.0014837546035723936 0.0008606842031027559 -0.0027217173879047155 -0.013626865186737351
-0.012227295954345534 0.009893229626069158 0.01148214632153359 -0.009962994507435267 0.010590563153906028 -0.0021646021873893357 0.00018122346769631445 -0.02073127273727173
0.003900339603309951 -0.0024220882566226647 -0.020166780543601884 -0.0002947266432768282 -0.01796418455068783 -0.018836892692741553 0.0002676570390844497 -0.008325432941806897
0.011662455687072554 0.010326324948551301 0.014902591418777393 -0.013742040396089904 -0.0006189538370301691 -0.012959174481739421 0.0036374170942731574 0.010100882407421546
-0.0029352471939957524 0.00602228911182291 -0.0005582800810897225 0.0034898276288278557 0.005553972901902833 -0.007763924515337378 -0.01382436121417038 -0.008446595426659032
-0.018361030427589266 -0.004624536373998351 0.003678282332822475 -0.009731118260816542 0.014866507787284391 0.00434619547933849 0.0014751697455454703 -0.007123360434102477
-0.00047823675102688645 0.0016896532719111199 0.0012549840087267034 0.009149829668053824 0.012112406203442255 -0.01496526402728613 -0.000646290775573788 -0.010140489698171506
0.005060996405541105 0.0010243238407320987 0.008834036674028616 -0.015249349357636298 -0.008302555701739356 0.010477690989003184 -0.016050508709631955 -0.008933951671431028
-0.0018831132201504838 -0.010430921767625433 0.012374194975708503 0.0033641405256378304 0.019440527104226658 -0.00605092079312418 -0.013933575228012819 0.000983712975464469
0.016703084776934943 0.00446160401843443 0.025170976011213236 -0.0054919897752665195 0.006573427119591004 0.011926370314836718 -0.017199389962347506 0.004789116359188726
-0.00886927738108695 0.002099550088445022 -0.005005370785125239 0.011856372198615198 0.0054192497536557594 0.0016936584559183343 0.004056759622281304 0.0009200570606233498
-0.0015804478804740407 -0.00012167506110261443 -0.005818889844317085 0.0017106347211773704 -0.011965900728364356 -0.006549562361116665 -0.00809169568308408 0.02054328442061977
0.006162666744411839 0.00536267195125035 0.010965279357728534 0.007500856753813555 -0.02087627592321536 -0.010257454274517465 -0.0036057716744867245 0.009312493130631185
0.003629075862639204 -0.016029367272408876 -0.00921870461088071 0.0006193864725726715 -0.001350519725905865 0.009082645797145133 -0.011701202477637456 0.00437911129323538
0.008289608674809894 -0.0003053219828027381 -0.006389649721855782 -0.005368489669922809 0.00506677756240933 0.004103860184103481 -0.013104299579816335 -0.002796812571747518
-0.0036148718336809957 0.005285301493204295 0.009444090868649783 -0.006205904723217664 -0.008691711314999788 0.001363745608378486 0.002563697780963798 -0.008906527799031394
-0.01327191439935031 -0.007703901804910432 -0.0015483680042777622 0.0017931391202185697 0.009559943473300839 0.004610685647593166 0.006647579805034184 -0.021415279237410698
-0.00453190643730329 -0.008568713182053817 0.02245421449079858 -0.0011894368135539006 -0.0005222463421722626 -0.0005007914130023338 0.0020374519279021735 0.014279366266373517
0.0007373959421353795 0.0036077940630931692 0.008003124314615868 -0.0008087175977898026 0.007514527048835572 -0.019309236258030583 0.002829465193848522 -0.011281852279039906
0.005950091333214305 0.007191006980460749 -0.009921626187942432 -0.0022601027326401776 -0.006872816969483179 0.0020903198705081467 -0.0029154280497418468 -0.015273097756355552
-0.01154766104141366 -0.0026689001181977806 0.0027841213575492247 0.01349371525295558 0.015267406746566771 0.004078277401915004 -0.012051613984700133 0.0041143722682255145
0.0183436214018024 0.025761222612246712 -0.006208586199071271 0.004096112037835067 0.015422815664956067 0.0002939856976135328 0.004410897407442919 -0.02711091755835823
0.004814664978376478 0.00022198626056390194 0.0006367396372106997 0.011679065300919013 0.00673128310928013 -0.011985953664221878 0.013354422308535875 0.0015961704257179126
-0.0024644259144956334 -0.007108661700368232 -0.007266789298162678 -0.011509872204127386 -0.015217795182803771 -0.00014243579089349927 -0.0048722986956586415 0.007041632410185125
-0.007235626639670716 -0.0012984143355931686 -0.0029905451125859218 0.013329577517318496 -0.009912163607643664 0.0127604922880924 -0.014386925303893499 -0.01625655481682263
0.018625188563889544 0.001294205197201446 -0.012524960425412188 -0.002347283685598517 -0.007263717980722389 -0.013698268055368456 -0.0023438991344445024 -0.018083779471241502
-0.01755510942895333 -0.0008304790740110555 0.019675272714329107 0.008146852570125398 -0.012997611993458643 -3.592714207951142e-05 -0.0026357184524670135 -0.0073173834835776825
-0.018480744396255393 0.01624215693805347 -0.0038356573622914236 -0.005069381696278699 -0.00840747655449849 0.015494097599258943 -0.02083211353225556 -0.002862702201325383
0.005056388984655938 0.0009990425312925498 -5.580103074106845e-05 -0.00652899432762096 0.003008908333540567 0.004766837458309328 -0.004610041570437403 -0.023463408461097207
0.002010758452322798 -0.005064299802622047 -0.016593651683339396 0.011410654448063846 0.008599265406732856 -0.0017633332534430191 0.007495915464471621 0.005750268187676021
-0.005202416139812832 0.004620734057905458 -0.008858002544281103 -0.027454625638560583 0.017729371336295263 -0.01419606983027458 0.006938283641449111 -0.019802460139505755
00000000: 2385 b4ad a25e 80bf dc99 684f 5183 913f
00000010: 16f1 fee3 2bf4 643f 8e3c 5da5 5b3c 6c3f
00000020: 11ff 7df3 46db 843f c3d0 4fd2 2d7c 80bf
00000030: 8c2d 0e95 4835 6a3f 54f2 90c6 3918 353f
00000040: 0992 cdb6 885d 81bf 29af d4bc 788a 6ebf
00000050: b39c 0f0f 0f04 75bf 20d5 7e48 1fdd 85bf
00000060: 8f37 d95f 514f 583f f3c9 9340 f133 4c3f
00000070: f4ae 70e5 da4b 66bf 29a1 97e2 66e8 8bbf
00000080: a97d f0e1 9f0a 89bf e8f7 90cd e642 843f
00000090: 18d0 8297 f383 873f e225 a37c 7a67 84bf
000000a0: 7253 2353 81b0 853f f267 51f3 7fbb 61bf
000000b0: 267d eabb d9c0 273f 45e7 a429 943a 95bf
000000c0: 2baa 43e1 9af3 6f3f 9300 35bb 7cd7 63bf
000000d0: 01fd 99bb 99a6 94bf e45a 4c4b b150 33bf
000000e0: 22fb 9304 3465 92bf 385a 4b78 fa49 93bf
000000f0: 16bd ba3a 8a8a 313f cc49 aeb1 ec0c 81bf
00000100: 70de 224e 7ce2 873f 2601 89df f725 853f
00000110: 4f86 27f6 3f85 8e3f 66f2 a670 c924 8cbf
00000120: de84 6f3e 2948 44bf 7367 a8f4 568a 8abf
00000130: 542f c76e 37cc 6d3f 7010 ce7c c5af 843f
00000140: 213f 86d6 a80b 68bf 0e73 84ec d3aa 783f
00000150: 5b60 5b58 314b 42bf c990 1af1 b296 6c3f
00000160: 6eeb 9f3f c3bf 763f 139e 1c9e 10cd 7fbf
00000170: 6e72 6c5a f24f 8cbf 7ad9 f5d8 724c 81bf
00000180: 5755 d4e4 3bcd 92bf 478c c487 2df1 72bf
00000190: 8ecd 65ca ea21 6e3f ce3f 7895 e8ed 83bf
000001a0: 4855 04e6 5472 8e3f 28ec 21f7 50cd 713f
000001b0: 3deb 0a74 4f2b 583f a629 a281 622d 7dbf
000001c0: 0079 9534 7b57 3fbf 0911 d862 ebae 5b3f
000001d0: 0d26 91d1 c88f 543f 5b8f 8159 25bd 823f
000001e0: 503f 28a4 63ce 883f 74e9 95bc 1ba6 8ebf
000001f0: ce78 55df 7a2d 45bf c6db f37c 89c4 84bf
00000200: 5766 c0e0 d6ba 743f 2e8f 5f59 53c8 503f
00000210: 495a da54 9417 823f acea 3506 0d3b 8fbf
00000220: 1390 b229 ee00 81bf f938 15e1 5375 853f
00000230: 58d7 f767 8b6f 90bf 66d1 05b2 f64b 82bf
00000240: b258 7e6c 59da 5ebf 5968 df9e ce5c 85bf
00000250: 5745 e155 a457 893f 0929 2d31 1d8f 6b3f
00000260: 4dc4 84b0 37e8 933f 71aa acae d9c8 78bf
00000270: a788 5dcf 3489 8cbf 38b5 bac3 fd1d 503f
00000280: 81df 6f0b 9d1a 913f 02d0 8cb5 5446 723f
00000290: e832 1b9b 6bc6 993f df84 98c7 c47e 76bf
000002a0: 2941 05e8 bcec 7a3f 989a b253 da6c 883f
000002b0: 0505 9985 b79c 91bf 4b34 3ba2 c09d 733f
000002c0: 61ce 5342 0e2a 82bf 63fd ea5e 1333 613f
000002d0: 3235 39fd 8280 74bf a8f0 bc56 2748 883f
000002e0: bb77 5fc7 7e32 763f cdda 70eb b7bf 5b3f
000002f0: c1a5 7c1e d29d 703f 4cb7 2f7e ff25 4e3f
00000300: 8535 6bfd e0e4 59bf 1181 f8a1 79e5 1fbf
00000310: 6330 4959 8cd5 77bf c0f5 b30b ec06 5c3f
00000320: 0833 5d02 9481 88bf d744 4ec2 b6d3 7abf
00000330: 75ce 9f02 6192 80bf 54b9 f47a 4c09 953f
00000340: b56d f941 063e 793f 4991 654a 2bf7 753f
00000350: cf13 dde1 f674 863f 329a 31e7 37b9 7e3f
00000360: 17f1 6829 9760 95bf 61b3 3135 dc01 85bf
00000370: 0183 66ed d989 6dbf 74b4 85ab 6d12 833f
00000380: 5cb2 a144 b9ba 6d3f 5c9f d7a0 006a 90bf
00000390: 8590 8596 41e1 82bf e024 5752 ca4b 443f
000003a0: a228 8b83 7d20 56bf 8374 4715 ec99 823f
000003b0: 63fd b8cf ccf6 87bf cacc a3bc d4ef 713f
000003c0: 8954 3d71 24fa 803f eba6 4eee 7302 34bf
000003d0: b189 6989 082c 7abf b8ce faf8 44fd 75bf
000003e0: d993 d3be e6c0 743f 0d05 7394 35cf 703f
000003f0: 19f2 0e51 6dd6 8abf 7b16 eb50 57e9 66bf
00000400: abab c189 ef9c 6dbf 9747 0151 0aa6 753f
00000410: 22d4 5e6b 6c57 833f dfc3 40dd 5c6b 79bf
00000420: 7cea c0be f5cc 81bf 0066 6fb2 f657 563f
00000430: 42be 08c4 7600 653f 6029 f1ec 953d 82bf
00000440: 9777 6732 4e2e 8bbf 83e5 db64 208e 7fbf
00000450: eae6 317c 535e 59bf 3d9f 3978 f860 5d3f
00000460: 5534 8ee4 2994 833f 14c7 1881 a7e2 723f
00000470: 9643 c31d 7e3a 7b3f 7c69 d60f e3ed 95bf
00000480: 0ded fc5e 0c90 72bf 1df7 1537 798c 81bf
00000490: 6bd6 94d3 3cfe 963f 6378 c00d dc7c 53bf
000004a0: da14 e47a eb1c 41bf 3ddd d75e f168 40bf
000004b0: 0e6b b8ac d8b0 603f 4d33 f918 803e 8d3f
000004c0: 4a8b 53ba b929 483f c5bf 5fb0 178e 6d3f
000004d0: e4a7 9329 f163 803f f1b0 2dd1 0380 4abf
000004e0: 65e9 b67e 8dc7 7e3f dab6 f4e8 ccc5 93bf
000004f0: fcc3 208f d12d 673f 8d3e 9d94 f01a 87bf
00000500: 5d2c f37a 1f5f 783f aaf5 e63c 5174 7d3f
00000510: 72b7 0020 ca51 84bf b032 506a c783 62bf
00000520: 115e d8c1 ab26 7cbf 44a3 6cef b71f 613f
00000530: bf55 1484 18e2 67bf 032e fa7a 8047 8fbf
00000540: ad33 25d4 4ca6 87bf 3299 2ad7 16dd 65bf
00000550: db79 b8c5 b9ce 663f 2a2f b4cd 97a2 8b3f
00000560: f4af 5ea5 8444 8f3f ed39 0b41 62b4 703f
00000570: 4a2a 6d3f 84ae 88bf ee9b 5e65 3bda 703f
00000580: b035 0b98 abc8 923f ac90 7f62 2661 9a3f
00000590: fbda deaa 2c6e 79bf d05d e4b3 15c7 703f
000005a0: ff51 2547 ff95 8f3f fc08 edf4 4244 333f
000005b0: 6b91 c641 2911 723f 975d 1ce1 f6c2 9bbf
000005c0: 1522 f9c9 8ab8 733f ad9e 6475 9f18 2d3f
000005d0: 0e51 7df5 5bdd 443f 4753 1f9c 31eb 873f
000005e0: 4f17 080d 4392 7b3f d75e fe77 178c 88bf
000005f0: 34bb 9338 9059 8b3f fd4b bff1 d226 5a3f
00000600: 75f9 9896 4630 64bf 49b1 57d8 f81d 7dbf
00000610: 58d9 1ee6 c7c3 7dbf 103b 95e5 7c92 87bf
00000620: ccd9 04e5 812a 8fbf ed05 9920 5aab 22bf
00000630: 03fe ddb8 f9f4 73bf bd5d 98ce afd7 7c3f
00000640: 1205 89bc 1aa3 7dbf 9ef7 e9c6 f145 55bf
00000650: 3ba9 95ae a07f 68bf dc10 0d9c 894c 8b3f
00000660: b32d 3814 d44c 84bf 833a 7748 2c22 8a3f
00000670: f69a 5c6d e476 8dbf 9cb2 22ed 8ea5 90bf
00000680: 8b11 0e3f 7b12 933f 9145 c33f 4a34 553f
00000690: 4566 49bb afa6 89bf a724 4055 9c3a 63bf
000006a0: b909 cb72 8fc0 7dbf 4629 7a6a d60d 8cbf
000006b0: 94fc 1444 8333 63bf 5d11 abe5 8d84 92bf
000006c0: a00e 8073 f7f9 91bf 79f9 3f3b 9036 4bbf
000006d0: 5d46 6433 c125 943f 8e09 d50a 4caf 803f
000006e0: 5107 81f3 7d9e 8abf 23e3 c033 0fd6 02bf
000006f0: f7ff c091 8097 65bf 796f 112c d5f8 7dbf
00000700: 4b8e 26c3 9dec 92bf ae35 76b3 c8a1 903f
00000710: 1c21 c0dd f46b 6fbf 9017 8bc9 a1c3 74bf
00000720: ca66 bf66 f037 81bf 5640 c293 5ebb 8f3f
00000730: 8075 4f79 0355 95bf 63f3 a68a 8573 67bf
00000740: c300 3315 02b6 743f 9e21 f3bf 495e 503f
00000750: c82e 22d1 7c41 0dbf d671 ce91 25be 7abf
00000760: 8e7a 745c 23a6 683f 9d11 d22f 6486 733f
00000770: 62a0 739c fae1 72bf c8ef f8af ca06 98bf
00000780: 0e4a 5fb9 dd78 603f 216d 78a0 4dbe 74bf
00000790: c762 341d edfd 90bf ea70 711d 785e 873f
000007a0: 0b47 88dd 7d9c 813f f17f f3a9 f4e3 5cbf
000007b0: 2133 607c 09b4 7e3f 25e2 f2dc 978d 773f
000007c0: 530f e4f2 204f 75bf 2e71 98da 30ed 723f
000007d0: a473 e2f9 2424 82bf 7a56 f7bc 101d 9cbf
000007e0: 20a9 45f8 a527 923f 12db 383d d412 8dbf
000007f0: 064d 4955 516b 7c3f 4ed4 b79a 1847 94bf

b0 f8 [1, 128]
-9.164229654107997e-07 -0.005829350691511683 9.410433709156405e-05 -0.01174866453660552 -0.016899458028610325 0.001036776120937924 0.0018976347857767872 -4.6381293669974245e-05
0.002207310733976987 -0.014879119945627892 -0.00620319901097973 -0.005579580741252106 -0.00028946567075830066 -0.00019812051459759306 -0.0013448675597879651 -0.017950531523603562
-0.006807080358557471 -0.00012314019192457044 0.013742204428746694 -0.011198079358721927 0.0009017371462549413 0.00010149871740956983 -0.0035837732929415453 -0.00027779078517602205
-0.014605189308504466 -0.0004495416492919057 6.70396705431804e-06 -0.0001944981685324079 0.00021027379009699016 -5.906014394010682e-05 -0.00011909702046443344 0.0015725572795757536
-0.005952570956001849 -0.019429860994348885 -0.00018336544088458278 -3.5313517800463024e-06 0.005007100888581007 -0.00027213047866953124 -0.001090641558645431 -0.017429205444926113
-1.7590686899158453e-05 -5.6328522478338e-05 -0.001955703981398619 -4.1402873586757154e-05 -0.0002788022225119628 -0.006429038589216233 -0.00010401495904513786 0.0027147572492929816
-0.00044300201646363656 0.003198386996669621 1.5908031763327763e-06 -3.0429420533824146e-05 0.00163136290831681 0.0009110669124338624 0.004738864590308136 -0.00408171625152482
0.007054499097964381 1.2007581301157767e-06 -0.024877243520219732 -0.004989758801837817 -0.008700637201592797 0.00030718160518470065 -0.00031543319702818424 -0.006450505815414992
-1.1640591205178023e-05 -0.008914503154815512 -0.0036014727870132103 -0.00336050054237164 3.700419291332397e-05 -3.724720419319417e-05 6.660025054869908e-05 0.00019499232486650415
-0.0023493013830494253 -0.0011822981400026083 -0.008873864293778181 -2.5543693717227474e-06 0.0001483158229414601 0.0067439235244833055 -0.00022121915698357743 -0.000141666444079139
-0.00027948789045100316 0.00027951914726127895 0.0017036285887484365 0.00802733725935049 0.0033784831630853883 -0.00863434971113191 0.012560217743441354 -0.01436877914953991
-0.00756993557905082 -0.007840798289422888 -0.00015446680710659967 -0.013708531839566693 0.007589863126264263 -0.009636845003651345 -0.005755121797799911 0.0006430590138481223
1.124300843709673e-06 -3.818899880207786e-06 -0.004168759695416844 -0.006676631190566645 0.0008246596357727467 -0.00030348434509977804 3.000946416060189e-05 0.0006044162636839865
-0.01823107719983878 -0.00595495784975967 0.0 -0.01227011270623196 -1.4974468421361078e-06 0.00012333249393768855 1.6723549884315632e-05 -0.014832300524296434
-0.02264830267931376 -0.014548597095559699 -6.031951564421725e-05 -0.004119926664162198 0.007434977876379214 -0.01359341879832688 8.698897367987016e-05 0.007286036537583971
-0.0089723161909502 0.003999229602358725 -0.008786952892644903 6.65519528447583e-05 0.00045543488595347736 0.0009403255470275095 0.00022985205427264685 2.0008822595843734e-06
00000000: 0136 b169 03c0 aebe f537 3b69 84e0 77bf
00000010: fce0 6c33 3cab 183f cab2 a60f af0f 88bf
00000020: 3347 366e 174e 91bf a7ca 17e2 8dfc 503f
00000030: 85f6 0ed6 4117 5f3f 5e87 9c1d 3151 08bf
00000040: 4feb 43ed 1015 623f 5855 7aac f178 8ebf
00000050: 57b1 1f8e 8668 79bf 95f2 f14c 9dda 76bf
00000060: 233a d796 6df8 32bf 7985 0043 d2f7 29bf
00000070: fe8e f38b c808 56bf d6d8 5bc7 9f61 92bf
00000080: 7308 57b8 bde1 7bbf 753a bc31 e623 20bf
00000090: 6574 c574 df24 8c3f a862 fdc4 04ef 86bf
000000a0: 1b9f c0c6 518c 4d3f 9b14 fcaf 769b 1a3f
000000b0: c2df dca2 b75b 6dbf 0cdb 6356 8e34 32bf
000000c0: 2290 7453 53e9 8dbf b7e8 90ae 0e76 3dbf
000000d0: 59ec 9e6e 541e dc3e 7ad9 c38b 467e 29bf
000000e0: c7d2 741a 9e8f 2b3f 758e 0018 ebf6 0ebf
000000f0: c323 563b 7738 1fbf 8030 8f85 c8c3 593f
00000100: 5d92 5419 b961 78bf 8b6e 25e6 6be5 93bf
00000110: e10d c524 b908 28bf 67d8 052c 859f cdbe
00000120: e713 0769 5382 743f 17c4 9181 97d5 31bf
00000130: 5cd9 dd74 7bde 51bf 445f 862d f6d8 91bf
00000140: b73d 94cc f671 f2be 06e3 854b 4988 0dbf
00000150: a223 8194 6805 60bf 92b1 74e7 ffb4 05bf
00000160: 126f 806d 8645 32bf c438 c4e7 5555 7abf
00000170: fa28 bb63 5344 1bbf 73fa 4533 423d 663f
00000180: 31e0 3a2c 5708 3dbf e4e7 9ef1 8033 6a3f
00000190: f96e 0297 72b0 ba3e 053b 41db 55e8 ffbe
000001a0: 8946 b495 6eba 5a3f d995 f34b 95da 4d3f
000001b0: f6fe f746 0f69 733f 4757 fd5c fdb7 70bf
000001c0: e38d a5ae 2de5 7c3f c49f b586 3725 b43e
000001d0: abfc 558d 6b79 99bf 72b1 e62d 2470 74bf
000001e0: 99b1 e1c1 a3d1 81bf 384e bdf2 a621 343f
000001f0: a346 eb43 17ac 34bf 2d5e 5178 d86b 7abf
00000200: 2706 4cac 7e69 e8be 2086 145c c441 82bf
00000210: 5a13 cefa d580 6dbf 8986 affd 7a87 6bbf
00000220: bfcb 1363 9e66 033f f187 e630 3c87 03bf
00000230: c879 9097 7775 113f a21c 0951 db8e 293f
00000240: c404 7a93 d73e 63bf 4f92 1bf6 ea5e 53bf
00000250: e285 72e7 752c 82bf e441 b569 776d c5be
00000260: dd89 d037 a770 233f 2306 c02f 849f 7b3f
00000270: 8cce c716 e2fe 2cbf d6b6 0f7d 8991 22bf
00000280: 439b 5f59 0751 32bf 098d 9998 8d51 323f
00000290: bb64 af44 89e9 5b3f 15e2 05f8 a270 803f
000002a0: b3d9 4156 31ad 6b3f 1c64 0dcd e2ae 81bf
000002b0: 637f 82e3 2bb9 893f 72ea 3ee4 606d 8dbf
000002c0: efe7 ea1b a701 7fbf 1222 d221 d60e 80bf
000002d0: 90cc 09c5 0b3f 24bf 92ba 6aff 3713 8cbf
000002e0: cde4 885e 8c16 7f3f b6b7 0471 7bbc 83bf
000002f0: 802b 7fbe ae92 77bf 233d 89b7 5e12 453f
00000300: 0f88 ccd9 d5dc b23e 46e0 b534 8304 d0be
00000310: 713c e8e8 4213 71bf 2c66 c689 f458 7bbf
00000320: 0cad 3e15 bf05 4b3f 3b02 4956 9fe3 33bf
00000330: 6246 9bac 9a77 ff3e f4fe f70a 36ce 433f
00000340: 2b6b 60e1 2aab 92bf a9a0 6bd3 3964 78bf
00000350: 0000 0000 0000 0000 1ffe 54a6 1221 89bf
00000360: 5405 0437 7c1f b9be 578e 550e 5a2a 203f
00000370: d750 e398 3189 f13e 510e 69ad 6560 8ebf
00000380: ea2e 45dd 1d31 97bf 122b d3a5 a7cb 8dbf
00000390: 993b a9c6 f29f 0fbf a54a 8d64 0ee0 70bf
000003a0: 4f61 35ad 2374 7e3f 04ea 6fc9 ddd6 8bbf
000003b0: 5480 3230 bbcd 163f fe96 578a f6d7 7d3f
000003c0: cb42 e0e4 1360 82bf d007 9f05 7f61 703f
000003d0: d876 71da e4fe 81bf ab1b 04d8 3972 113f
000003e0: aef9 ccf0 edd8 3d3f 6600 6dbc 05d0 4e3f
000003f0: 5594 ae1c 8e20 2e3f 4f69 b5a7 dcc8 c03e

W1 f8 [128, 64]
0.001061965812537893 -0.007474364279154283 0.00945591504525944 0.0034115384716482135 0.006720718896587231 0.013887950737618348 -0.007230123968212367 -0.003994767435821791
0.02248444078763198 -0.013329642320376959 0.004481412787273199 0.02357247644700654 -0.016496508470715335 0.00987829126907562 0.0016339962988482185 -0.004617773075523985
-0.006644688866992382 -0.007019877395236171 0.0004667293079193614 3.335901502531843e-05 -0.002522392191378786 -0.0174933613687993 -0.002993916310222074 -0.02097329614829349
-0.007831612411914138 0.013573315644433547 -0.018366959737301885 -0.001348477243846663 -0.010160158130997828 0.007687632919732511 0.0047468202764705 -0.0003366632993280372
0.0005148698485404292 -0.00904274980962643 0.012041699923251716 -0.002197654108377591 0.0032546433977868917 -0.003950535670206521 -0.011869203615823028 0.013718092299929025
-0.005660344265474132 0.010771785982479194 -0.022030023044931936 -0.009654147866519967 0.0164794950958152 0.005470127379567588 -0.005024365782648975 -0.011443899869333404
-0.0041311447741511015 -0.006745457377133644 -0.01036483504393924 -0.00720483126047995 -0.0013655202634163385 0.006129920302364234 -0.005790559236527496 -0.008940160517139336
0.007417811678744465 0.004695536423194898 0.019999496675710805 -0.00861153024778629 0.000824876978563315 -0.016366772442673424 -0.006567921788884012 -0.009883080392199354
0.013515098644828607 0.019886424258333483 0.001026967929403906 -0.01020952538592629 -0.0185371511276531 0.017960953573533035 0.005644022233995617 -0.004590473483938448
0.017931614390419612 -0.0016229141045717031 0.040572123390662185 0.0228325730914496 -0.00041518662596244703 0.020270419064252965 0.03019619735414324 -0.008719466384717553
-0.0006351430986031442 -0.00494909581453333 0.002927782993564953 0.01575463081385554 0.034995131059814805 0.010488065710512235 0.020213986109483047 -0.00042393477719359653
-0.016071423577636416 -0.007989227368938298 0.019860098528659966 0.02708509845288516 -0.012712930568855208 0.0019044904226049146 0.015568798679376246 0.017604779077234175
-0.008889077675461115 0.026295297279206185 -0.018035037311140388 -0.011975334448449821 0.00574802929654289 -0.01364287419182271 -0.006255654630231501 0.014648123098163716
-0.0007945883097545348 -0.01738912059035271 0.0158486967750879 0.011346983939868853 0.010492741220475181 0.015908635809649557 -0.003943268294392963 -0.014527839416261954
0.018140946549684397 -0.004212612179361017 -0.0010847475199010116 0.007338745592171315 0.0019464197300432297 0.004834755039710395 0.009598350895589377 0.03390619546267027
0.005017520051627509 -0.0016461201055055841 0.043871715681618254 -0.0076862920999456194 0.009758519095225278 0.0005124617710302274 -0.0050286717561699645 -0.0031896363035033588
-0.008921611504014635 0.0020965978623433824 -0.0044382882008492655 -0.005937214250171517 0.014213907978131535 -0.014870869760709999 -0.0011415391124524295 0.004376812893729733
0.0035868894903062954 0.013874606959988869 0.003045128768294854 0.013322490029370455 -0.009310403441202467 -0.00924714813421214 -0.013355003598466239 -0.009308957884188908
0.012661810541360325 -0.0058598517328584485 0.004805462094534377 0.0006205415357385607 0.009509444796804588 0.016762469703578163 -0.000366215714241216 0.009543922942798955
0.001144224142334925 0.008467751782024815 -0.0008150760598827537 0.004879915198483884 0.002990555850192023 -0.0065372726873455175 0.0016546691935798792 0.007940294686094479
0.014811577462834088 -0.011508200973881636 0.018369899648694094 0.00650240942054989 0.002785433482743351 -0.0005739688679019053 0.014749977352015633 -0.00028333371452754643
-0.0033719613327926404 0.002989727555081862 -0.003576201856536264 -0.0003173499164438212 -0.009172740285764015 0.0004227708705396663 -0.0006449102497189436 0.012655174298234786
0.014691942280452333 0.017556893339239023 0.0008864663034862318 0.0072007411678910345 -0.011136889931725243 -0.010624157146257756 0.01652607662627045 0.01596897779031277
-0.01746344041627327 -0.023533658619947793 -0.011225305715297179 -0.00017915916774432014 0.0027449335830838605 -0.011044137711147274 -0.0023344470139541737 -0.009400776341563588
0.010046710043534348 0.0049276281389559595 -0.007033591328567053 -0.009389854506692327 0.009703075831617199 0.03326043564922302 -0.014910258989690915 -0.004759098761412205
-0.00016281545658485463 -0.0032973653262428127 0.08112886869348317 0.019751574027623255 -0.012351248963966988 0.05084937110266714 -0.008258604006377724 0.00938819009103956
-0.011148452653830783 0.016644481359833912 0.018930422804154915 0.04314154557002953 0.06667016783242798 0.016220610657079686 0.030025035791023277 -0.0006417820011021832
0.0021904890450584647 -0.023421723834952547 0.018141786204973153 0.05142692806484675 0.0021618127415096175 -0.013822658744573875 0.07436946225200884 0.06248481654381626
0.037879862351455504 0.07077779958913843 -0.011271814236821649 -0.001333281238641571 0.004478864592089303 0.0026119716142412254 0.009124086768458299 0.02863112667647909
0.012759646468720876 0.0025439695005751335 0.0010969491675500917 0.06766977754131957 0.0465960260171963 0.026421177206342232 0.007483064918564159 0.0023391399525978704
0.008315704275545096 -0.00960514996963983 0.00570294213507648 0.022840708223265754 0.00016164950312899225 -0.0038472727466644643 -0.02740575790137374 0.05505322848265644
0.015350587417792437 -0.01861607890325484 0.021709487596779563 0.029315942773525467 0.004287986439197685 -0.02380734206704113 -0.008275895068330388 0.007841989536260115
00000000: 72e7 cb1b 3566 513f 939e 3262 709d 7ebf
00000010: be32 fc6e 9f5d 833f 03d6 45c5 83f2 6b3f
00000020: 1bfc dc3d 2f87 7b3f e6ee cf31 4971 8c3f
00000030: b5fb d49f 559d 7dbf cf26 df37 d15c 70bf
00000040: 572b 6847 2906 973f d5cb aa4e 924c 8bbf
00000050: f488 c715 1a5b 723f 9dd6 b31d 6223 983f
00000060: f406 85f1 75e4 90bf 1841 87cf 113b 843f
00000070: 6de6 942a 7ac5 5a3f 5483 6f05 16ea 72bf
00000080: c663 0316 7637 7bbf 30fc 59fd dfc0 7cbf
00000090: 68c8 141d 6b96 3e3f 45bc 4a07 5f7d 013f
000000a0: 806f 07ff d6a9 64bf 7d87 e79b c7e9 91bf
000000b0: 2aad 7594 b286 68bf 685a 2f14 067a 95bf
000000c0: 5513 7939 050a 80bf 863a 5496 53cc 8b3f
000000d0: 6b3a 98cd c9ce 92bf b3a5 596a ec17 56bf
000000e0: 9199 2857 d9ce 84bf 7f1c 953f 117d 7f3f
000000f0: 4213 8fdd 6671 733f 1fb1 41dc 4510 36bf
00000100: d877 a194 0adf 403f 1b07 9655 0185 82bf
00000110: e16f de9a 51a9 883f 1eb5 bf90 d000 62bf
00000120: c831 845e 7ba9 6a3f f15f 15d8 6f2e 70bf
00000130: 914e e08a e14e 88bf 3769 552e 3b18 8c3f
00000140: 06aa 1118 4d2f 77bf 0434 1da4 840f 863f
00000150: ba4d 08d2 098f 96bf 7f0f dcca 8dc5 83bf
00000160: d0e7 f631 00e0 903f bd01 3423 d867 763f
00000170: ff8e 83eb 6d94 74bf 987d 6b3d e66f 87bf
00000180: 7948 33bb d1eb 70bf a436 4ded 1fa1 7bbf
00000190: b654 569c 283a 85bf cefc 302a d082 7dbf
000001a0: bcc2 e537 685f 56bf 67a2 9cf3 af1b 793f
000001b0: 0434 be68 d7b7 77bf 913a 5608 384f 82bf
000001c0: 16ea 16a9 2362 7e3f 222d ff75 a03b 733f
000001d0: 2a72 a280 bf7a 943f 0c16 4306 eca2 81bf
000001e0: f821 b5d2 9107 4b3f 6f88 8781 73c2 90bf
000001f0: 9938 9314 f7e6 7abf d5be 8b98 943d 84bf
00000200: ce3a 74d5 cdad 8b3f 91b2 4b57 1b5d 943f
00000210: 86e3 ee6a 6ad3 503f a133 1f4d bbe8 84bf
00000220: 45c8 6a27 67fb 92bf 8a2d d030 5b64 923f
00000230: 7545 9bae 2f1e 773f 5667 c9d7 75cd 72bf
00000240: 4c3f 7c45 aa5c 923f c7ed 36c0 fe96 5abf
00000250: 0031 2f8e dec5 a43f 8260 d80a 6c61 973f
00000260: 0a5b f1fa ac35 3bbf 5d27 d4cb c4c1 943f
00000270: 5dff 6580 c0eb 9e3f c5fd aff7 82db 81bf
00000280: 80a0 1b6b f7cf 44bf 30e9 b0ca 8045 74bf
00000290: 98f1 a086 01fc 673f e39b 6c60 fb21 903f
000002a0: 749f d7be e1ea a13f 17b2 cc59 c47a 853f
000002b0: 0f51 0ca5 f9b2 943f 9c67 f100 72c8 3bbf
000002c0: 3119 aafa 0675 90bf 58c0 28f2 a75c 80bf
000002d0: 9727 b4a6 3456 943f b39e 4130 32bc 9b3f
000002e0: a785 3ca8 3c09 8abf b018 2905 0334 5f3f
000002f0: 91d2 53c9 88e2 8f3f ef62 8fb9 fc06 923f
00000300: 09fd 42cf 6f34 82bf 5941 6987 27ed 9a3f
00000310: 36e4 bbdd c677 92bf d79d 842e 8686 88bf
00000320: 4189 85dd 3e8b 773f a88d d193 cbf0 8bbf
00000330: 1ba5 d480 879f 79bf a233 3ccd d5ff 8d3f
00000340: cd5b ef66 7d09 4abf 4591 f720 74ce 91bf
00000350: 7638 5509 a43a 903f 2f96 7067 163d 873f
00000360: 8941 19e3 377d 853f ab0d 1b7a 5a4a 903f
00000370: 0a02 d205 d126 70bf df23 6599 c5c0 8dbf
00000380: aff6 9850 8a93 923f b04a a878 3e41 71bf
00000390: 1045 d5c7 c2c5 51bf 9b1d fe84 3b0f 7e3f
000003a0: 15c5 6d45 e0e3 5f3f 5dc3 79ac 9bcd 733f
000003b0: cb65 89d9 4ca8 833f 21b4 4921 275c a13f
000003c0: a4d1 7548 408d 743f 1f08 2e01 54f8 5abf
000003d0: 0ad8 2480 5a76 a63f e1f7 2553 a97b 7fbf
000003e0: 3798 f842 46fc 833f daea 0446 d7ca 403f
000003f0: 97d7 c2cb f198 74bf 4482 82f3 2621 6abf
00000400: 5250 196d 7e45 82bf df56 0d68 e22c 613f
00000410: 9f13 c4ea e12d 72bf 3e93 8ad0 9e51 78bf
00000420: dabf 506f 2e1c 8d3f 5d58 485a 9e74 8ebf
00000430: 6ff6 ec49 f6b3 52bf 9c17 d4c3 6bed 713f
00000440: 2975 c4a1 4062 6d3f fba2 1a39 4a6a 8c3f
00000450: c417 1a0f 19f2 683f f7c7 d157 d248 8b3f
00000460: 351a 5732 5511 83bf c9aa 8a36 2bf0 82bf
00000470: 1808 8c3d de59 8bbf 6724 612d 9310 83bf
00000480: 1761 7771 6fee 893f aa23 d5f8 7f00 78bf
00000490: 1070 9c68 e4ae 733f c700 08cd 7a55 443f
000004a0: b93e 3e13 b079 833f f64e b54c 2e2a 913f
000004b0: 5e1f 1584 1400 38bf 0da5 51a7 c38b 833f
000004c0: 93df 5151 39bf 523f 68a8 cb67 8a57 813f
000004d0: a774 ae82 5ab5 4abf a4b3 f442 f6fc 733f
000004e0: e796 5972 a67f 683f 98dc 5ac6 d3c6 7abf
000004f0: 22af 9d84 2f1c 5b3f 83a1 fa4f 0043 803f
00000500: 6bba 7046 8855 8e3f 0f87 8c96 9c91 87bf
00000510: 0845 e318 8fcf 923f e346 e73c 45a2 7a3f
00000520: 8488 d536 7ad1 663f 4aaa 1ec2 ccce 42bf
00000530: 6eca bf72 3c35 8e3f 1bfc a909 8d91 32bf
00000540: 5021 baf4 839f 6bbf f53b 56c2 e97d 683f
00000550: ca24 91c0 d64b 6dbf 3827 3483 3fcc 34bf
00000560: 9422 565c 28c9 82bf a918 0b10 ebb4 3b3f
00000570: 2f0d 3837 e621 45bf 6e87 e3bd f4ea 893f
00000580: fbc4 df1c cf16 8e3f 1a77 d82a 6ffa 913f
00000590: c248 28e4 370c 4d3f 7439 2b3d 867e 7d3f
000005a0: 048c 4910 f0ce 86bf 030a ed3b 1ec2 85bf
000005b0: f767 903a 36ec 903f 1495 70f5 2b5a 903f
000005c0: caa9 daa5 efe1 91bf 56f9 8218 3519 98bf
000005d0: 237a 7a07 4bfd 86bf 82aa 5088 957b 27bf
000005e0: 785a 02ff 8a7c 663f a753 4112 4f9e 86bf
000005f0: 5ea0 88b2 b01f 63bf 935d 8dd7 b640 83bf
00000600: 5b14 8e98 5e93 843f 6e36 421b fe2e 743f
00000610: ef8a ac4b 41cf 7cbf 5edd 29f0 fc3a 83bf
00000620: 7171 f0ca 34df 833f a56e ba06 8307 a13f
00000630: cc88 e215 4589 8ebf 6583 9ed8 467e 73bf
00000640: acb6 641f 2e57 25bf 0d57 a787 1303 6bbf
00000650: 0bcc cc8d dcc4 b43f 3700 f9b1 c139 943f
00000660: fa80 eb92 9c4b 89bf 7af5 d0c3 ed08 aa3f
00000670: 9aad f110 e3e9 80bf 93f4 468b 1d3a 833f
00000680: f7c6 64fc ffd4 86bf cbc0 653c 400b 913f
00000690: 8189 5f2b 7f62 933f 88f3 a40e a616 a63f
000006a0: 3188 75ce 4b11 b13f 7e58 2cc1 229c 903f
000006b0: 8f7b 220b e2be 9e3f 11c7 5a5a a807 45bf
000006c0: e9d8 f1d9 c9f1 613f bd5a 8c47 ddfb 97bf
000006d0: 13fa c3a9 c293 923f a432 585c a154 aa3f
000006e0: 02a7 cb60 a6b5 613f 3782 03da 0d4f 8cbf
000006f0: 3388 3188 e009 b33f 97c0 1a87 02fe af3f
00000700: 96f5 f343 fd64 a33f 38a8 846e 7e1e b23f
00000710: b721 1c4c ad15 87bf 03d9 3ed4 2fd8 55bf
00000720: 4bc8 230f 6e58 723f 31ee 2895 b365 653f
00000730: 6f0e 3632 a6af 823f 2d77 e462 7a51 9d3f
00000740: 4d5b 55c2 ba21 8a3f 28e0 d239 17d7 643f
00000750: e03b 3333 f0f8 513f 33b2 7779 ce52 b13f
00000760: e61e bc2f 6fdb a73f 2e9d 1730 270e 9b3f
00000770: c7d2 95f1 8fa6 7e3f 6b0e 1c33 8829 633f
00000780: 11de 40ef d207 813f d635 f167 ddab 83bf
00000790: f0cd 60df f75b 773f 787a 58fb 8d63 973f
000007a0: 5f0b a1a8 0e30 253f 7edd 05d4 5084 6fbf
000007b0: 334c a247 4110 9cbf 4a94 becf ef2f ac3f
000007c0: 1f70 78f7 2070 8f3f 90e5 46e8 1710 93bf
000007d0: 36df f60c 033b 963f 05d4 da9d ff04 9e3f
000007e0: 6f4c 5a98 4790 713f 179c 54ae f360 98bf
000007f0: 0811 4fd5 f3f2 80bf 3120 c004 760f 803f

b1 f8 [1, 64]
-0.014668952427734638 -0.0007560426947928738 0.0009722198371076618 -1.1374063268006983e-06 -0.0015070629499882478 -0.005155594051511055 0.024561212624183298 -0.0011228231536298617
0.02362874113869492 -0.0012595575609455558 -0.037399366789670006 -0.007038131486384819 0.004425672791662904 -0.0284440591001501 0.007252802874079162 0.001207051875764343
0.02976538902120174 -0.0012827597529284545 -0.005858672862472008 -0.009576058113794753 -0.020922377920425474 -0.00367487369804649 -0.010220264750598698 0.0008252054455961562
0.01578916646678821 0.005841868083856583 -0.0038498878072868326 0.00562934443234507 -8.1822426120246e-06 -0.000663966564351264 -0.02587574122449381 -0.03187069424612326
-0.03186854713188342 -0.023383000160858564 -0.0008375687936325116 0.0 0.0004960114755658949 -0.0006127270729875039 -0.013326575939819634 -0.009735072455123724
0.0020325683768458746 0.00013221392901346322 -1.0968027182230592e-05 -0.014187357981949998 -0.0052447226177247475 -0.016614787966541773 0.010811798769640422 0.013379712806540291
0.03967791026490477 -0.001012274602197574 -0.0072809244533487884 -0.0030054560151473856 0.014338744060013746 0.0403063469694783 0.046874640505244355 -0.01497335193505036
2.962769519064422e-07 0.00010264875659135353 -0.01162113569398945 -0.014441514801743712 3.134827449453231e-06 -0.002217764066919942 0.00896893716750155 -6.921138088589652e-05
00000000: a0b2 8c77 c10a 8ebf fa8a 0253 25c6 48bf
00000010: 29c2 d333 92db 4f3f 88c6 587b 1f15 b3be
00000020: d05b 5385 14b1 58bf bcaa 7b3d 081e 75bf
00000030: db45 e213 9326 993f a489 562e 7665 52bf
00000040: 16d1 bef9 2132 983f 6238 07a2 f7a2 54bf
00000050: 4b67 8182 0226 a3bf 3a8b f108 04d4 7cbf
00000060: cca4 727e a720 723f 170d 677e 7020 9dbf
00000070: 9446 6072 1db5 7d3f 9dd4 2e15 bec6 533f
00000080: 8159 9871 d17a 9e3f d439 ffcb 4804 55bf
00000090: 93fa 7985 43ff 77bf 2202 63c3 9c9c 83bf
000000a0: 37ed b003 ad6c 95bf 9e87 33cb c41a 6ebf
000000b0: 0edc e1b6 5cee 84bf a057 5e33 530a 4b3f
000000c0: 877f 6c06 092b 903f 1a24 e285 a4ed 773f
000000d0: 64d6 37c7 cc89 6fbf 6fe9 c1a3 cb0e 773f
000000e0: 5223 95dc ce28 e1be 91b6 fa56 c1c1 45bf
000000f0: 6d9d 4699 2b7f 9abf f7cf f90a 5b51 a0bf
00000100: a8aa 67ff 1251 a0bf b89b e493 b6f1 97bf
00000110: 48a4 d449 0972 4bbf 0000 0000 0000 0000
00000120: 6f90 7288 d840 403f b392 b35e ed13 44bf
00000130: 292c a2be f64a 8bbf fe33 8d4e fbef 83bf
00000140: 45f0 92d6 9aa6 603f 1cc7 9b00 5d54 213f
00000150: 2ec4 752d 6a00 e7be ec98 64f4 420e 8dbf
00000160: c95e ea81 7d7b 75bf 55fb c88b 7703 91bf
00000170: b226 0311 7f24 863f 8ec1 78a7 d266 8b3f
00000180: 233b ecbd a950 a43f 7296 e793 c995 50bf
00000190: 56a6 9646 9ad2 7dbf 5d90 6de9 e59e 68bf
000001a0: 6983 6da6 a15d 8d3f 0d3b 1c94 08a3 a43f
000001b0: 0eac f6ef f3ff a73f 0cf6 fa46 59aa 8ebf
000001c0: 9213 8dd0 ffe1 933e 54b7 cb35 a4e8 1a3f
000001d0: 6e08 fc6d d2cc 87bf 3ebb 394e 8393 8dbf
000001e0: b5d3 a99d fd4b ca3e a7c0 6704 fd2a 62bf
000001f0: b0ae 835e 4e5e 823f 59e1 3b78 b224 12bf

W2 f8 [64, 10]
0.08037831116349528 0.004901790882898323 -0.031049478909644827 -0.009795111961278937 -0.0022787619651729644 0.005884721496305466 0.0111052531553591 -0.00019765713761057377
0.007729241862948593 -0.020241107574948118 -0.012839529917895057 0.001010105689079065 -0.007409342302114893 -0.004845490934858919 -0.006037258789290428 -0.0003774295549752884
0.007247458559013763 -0.0027863311262558343 -0.017433660774492467 0.007987219933195564 -0.014747306720424057 0.013291588148269676 -0.0034413290959389832 0.0005411046365757853
0.0032049534983913993 -0.010873623536116353 0.006969483839801137 0.011114480831117825 0.004945404691929632 -0.018429821374525285 0.0037961921481005044 -0.0019454612446280321
-0.0021293673835757606 0.00872945871475699 0.009588048658590484 0.004501835457991655 -0.005183396571223153 -0.010472045595961493 -0.0061773655483924 0.010625151736685164
0.010799463468069457 -0.0019006293867479993 0.0069272445085008265 0.019233073784266325 0.005065991317417041 0.014129178605225095 0.005635060708579878 0.0011892280814989674
0.004202287914187298 0.0037981005514190562 0.11265219947915081 0.0029992901204302924 0.015978523763967575 -0.035869659328851486 -0.004976821010228421 -0.02723617377389447
0.006635390370543627 -0.029740819558618833 -0.023695573984112886 -0.02076297441192095 -0.07382871006072864 0.02643758178026905 0.03285886376037863 -0.011783809172748173
0.03719747056563529 0.0035055416119325095 0.028004258887358534 -0.008955879705789812 -0.03602881288197334 -0.009239009113629211 -0.0007739654705634529 0.008957366034428616
-0.011234911560021882 -0.010119844750832913 -0.005429882930936499 0.011094044075795659 0.003323174090464217 -0.00914993325433224 0.009627344462627871 -0.002266520243633633
-0.09048255164416719 0.049495508450142514 0.051405523095727115 -0.0012248062795577536 0.045089515968014277 -0.0016330493975647044 0.027074837854391264 -0.03041800911966928
-0.027052029041770138 -0.017861954875674775 0.009467028450650238 0.012704405603404747 -0.008926842377361837 -0.007385227324557756 -0.008471596720402158 0.007141703997119732
0.014320404424195335 -0.004497247537540008 0.01273339663312202 0.010253139912224107 0.4433973451470601 -0.08869787949644138 0.08649367008247677 -0.08654002959257122
-0.04398439241496672 -0.07613692306259535 0.062343448101363705 -0.10708305774840779 -0.06414393606540257 -0.10978186302798794 0.14007227123413768 -0.033675311607830924
0.07235386248577098 -0.04417472524550627 -0.023860492875099726 -0.036236965067355305 0.03654648063293158 -0.052383639669788463 -0.025910198107559953 -0.04922644458357103
-0.014495047290847605 0.007722666629980718 0.011101204089980506 -0.02789698401695586 0.014796379190095176 0.014298598615409082 0.004604040579433599 0.0026427305106788714
-0.014104084032443374 -0.017533078248553376 0.2333048553789707 -0.04140093604367145 -0.02206569890892829 -0.01601555278948232 -0.0274317539820618 -0.035389699527056714
0.006898559175879183 -0.03672302395087902 -0.002488332023897045 -0.036558802941631885 -0.026448853467317443 0.0312883873648324 0.02388381218763293 -0.013712802169487514
0.003223179035704769 0.01296269085598995 -0.005792569496144687 -0.008390806054002933 0.005300248231843279 -0.009863464776253994 0.008639173774784507 0.011940641284530156
0.00716972841578771 -0.003551908967898661 0.003839536533292635 0.007982195812621525 -0.015003064730392734 -0.012394453375139936 0.0017581990370276889 -0.0031939751565934382
-0.07683388524479683 0.052239244106613764 0.06697124565874418 -0.021564442151545613 0.026562035768774108 -0.004494266115239665 0.007329388550497773 -0.020006644082598286
-0.020348312366194526 -0.03859614979956143 -0.014917920262902444 -0.00341375655045946 0.013134109300428775 0.006531957135971965 0.007027912386369073 0.003634774523358067
0.010462122657226632 0.006369325655347728 -0.008631631116747564 -0.000773516177516727 0.11446762139583348 -0.012374712706521095 -0.00503548501350538 -0.029734833652533668
-0.00936304920025839 -0.016449539234183515 0.01742064515513431 -0.013520463049226975 -0.017247300451680124 -0.01865853777399751 0.18349986907102575 -0.04298961116045638
0.06173977715349244 -0.0457457217196568 -0.0247602247884497 -0.04173118684465884 0.032495333080294564 -0.04161199713178591 -0.024493798410593695 -0.05941164808512515
0.39365470408722897 -0.1101084116832699 0.18486022524000703 -0.10101736767825455 -0.022052317875835614 -0.09664473317079626 0.08990554392307762 -0.12862643646989386
-0.07557416398568484 -0.1375778909960886 0.04374533195678675 -0.005127306622841391 -0.01994411610435418 0.0010505225829911 0.0076526909805150175 -0.004395385267259518
0.011492190384224069 -0.020041109710639847 0.007102424885207886 -0.0338172102482758 0.15619810682403307 -0.019938388003763127 0.03378161578791572 -0.04385084270656682
-0.0292274013818012 -0.040000127529731554 0.015785965152282155 -0.05489155222199576 -0.023886969602536712 -0.047165141411159586 -0.00196518381893271 -0.0032336709347383953
-0.002346038773811882 -0.004541605777481724 0.013724934986489504 0.000934560864367937 0.012023233709662125 -0.0032784375358953506 0.006864029775069945 -0.0018591544234094724
-0.0687960474716833 0.02614256162072349 0.028615103912256086 -0.005096483697917508 0.013337273976682423 0.010177545609625435 0.0019435270722611378 -0.001540465739898608
-0.012482517535406789 -0.01998209000821719 -0.009129818791835111 0.016925777922736633 0.013502361229676818 -0.012552495988773083 0.01696133444164578 0.005714582112957412
00000000: b242 c149 ac93 b43f fbc4 8a78 e613 743f
00000010: 2129 e641 6fcb 9fbf 0e5a 46ac 750f 84bf
00000020: 0b86 b403 e9aa 62bf 7294 f6e5 931a 783f
00000030: 22b5 edd8 59be 863f 2a43 3be2 45e8 29bf
00000040: b947 6390 b2a8 7f3f 9ee1 46bc 15ba 94bf
00000050: 423a bf88 9c4b 8abf 2e35 9bb9 b08c 503f
00000060: 1691 f52d 4259 7ebf be91 9291 ddd8 73bf
00000070: a07b eb50 86ba 78bf 2395 5c98 37bc 38bf
00000080: 7f5d d7d7 82af 7d3f 2ee1 0422 5cd3 66bf
00000090: fa06 812b 21da 91bf df38 3183 9a5b 803f
000000a0: 19e2 8b00 d633 8ebf b50e 45c3 9e38 8b3f
000000b0: 1aa4 7f7d fd30 6cbf 3c19 e15b 1dbb 413f
000000c0: 8cce be4e 4641 6a3f 5526 d00b e944 86bf
000000d0: 1855 9792 088c 7c3f 610f 745d 30c3 863f
000000e0: 985a adf6 a141 743f 3880 4c60 44df 92bf
000000f0: 7878 0324 3119 6f3f 30ca f61a dbdf 5fbf
00000100: 5e8d c168 9b71 61bf db86 881d c0e0 813f
00000110: 256b 5e1b e6a2 833f 8156 0641 8470 723f
00000120: 19f2 166c 2f3b 75bf 83e1 da2a 5e72 85bf
00000130: 5aaf 17f0 6f4d 79bf 24f5 cab9 a3c2 853f
00000140: 7213 4773 071e 863f d19e b443 d123 5fbf
00000150: a3b4 d809 be5f 7c3f c5b2 9ebb d5b1 933f
00000160: 8e65 7bb0 13c0 743f 76f3 3a40 c2ef 8c3f
00000170: 76ea 4417 ca14 773f 1ee5 ebed fb7b 533f
00000180: 7495 8e12 6b36 713f 13ed f7b4 311d 6f3f
00000190: 26de 9548 c6d6 bc3f c093 4f9f f791 683f
000001a0: bfb5 0494 ac5c 903f 46df 780b 825d a2bf
000001b0: 5fb2 a137 9362 74bf 4d19 82ae cce3 9bbf
000001c0: 0eee 330a b62d 7b3f 3c28 719d 6074 9ebf
000001d0: 346f 490d a743 98bf 957d 44a0 e342 95bf
000001e0: 5e79 3737 70e6 b2bf 2dbd 8614 7412 9b3f
000001f0: 6316 7882 e0d2 a03f da70 2718 1c22 88bf
00000200: 038b 25ff 8b0b a33f 091e 7f52 a7b7 6c3f
00000210: b399 4700 26ad 9c3f fed4 8bd3 7557 82bf
00000220: 0f64 155a 5e72 a2bf 9182 eccf e6eb 82bf
00000230: 94d9 3031 7e5c 49bf edcc 6851 3d58 823f
00000240: 833b ca4d 5402 87bf 30a1 f691 b6b9 84bf
00000250: 096f c019 a53d 76bf 982c e363 79b8 863f
00000260: dfdb 3281 3339 6b3f cb19 b440 33bd 82bf
00000270: 251d ea4c 80b7 833f 3be0 4eca 3c91 62bf
00000280: b09a 2b50 dd29 b7bf e23b 2fac 7957 a93f
00000290: c251 0f21 d351 aa3f 5f65 89ba 3511 54bf
000002a0: 243f f318 f915 a73f 10b8 5670 81c1 5abf
000002b0: 4636 849c 81b9 9b3f bb7d 8309 e625 9fbf
000002c0: f570 19f0 86b3 9bbf 6275 2280 674a 92bf
000002d0: 26cf af0c 7363 833f a168 a774 c404 8a3f
000002e0: f6dc 8980 3c48 82bf b7ec 51dd f83f 7ebf
000002f0: 234a df76 8e59 81bf cf7a af91 9e40 7d3f
00000300: 75dc 5625 0454 8d3f 1032 88b1 b46b 72bf
00000310: 879c d990 f713 8a3f 06a3 d524 99ff 843f
00000320: dc8c 2242 9f60 dc3f 6969 a97b e7b4 b6bf
00000330: 50b4 50fc 7224 b63f 771c e5c4 7c27 b6bf
00000340: 39d6 e94d 1f85 a6bf 0969 929a b57d b3bf
00000350: ae32 6efd 7aeb af3f ea2e fc96 cb69 bbbf
00000360: ff3a a3ab bc6b b0bf 552f 6607 aa1a bcbf
00000370: cc76 0360 e3ed c13f 9694 13f4 e33d a1bf
00000380: 659c 1d61 c885 b23f 037d 7ad0 119e a6bf
00000390: e08d 4292 e26e 98bf 61bd bdc7 a68d a2bf
000003a0: b765 3466 38b6 a23f 3552 7446 07d2 aabf
000003b0: aff7 04f6 3388 9abf 1c6a 2b63 3534 a9bf
000003c0: 7f99 8b50 94af 8dbf ba9f d189 cda1 7f3f
000003d0: 04fc 1964 3abc 863f c618 0ae8 0691 9cbf
000003e0: 99f0 c365 904d 8e3f 515a 746b 9548 8d3f
000003f0: cd6f 7dbb afdb 723f 033c b223 35a6 653f
00000400: 1269 461d 9ae2 8cbf aff6 b3f6 30f4 91bf
00000410: 5fe3 ecf9 eedc cd3f 8fa7 a9e4 8032 a5bf
00000420: c07b b5fc 6398 96bf 452f d58d 6166 90bf
00000430: 2945 e6d8 1117 9cbf cefe 2a44 991e a2bf
00000440: ce7a cce0 a941 7c3f 122d c235 5ccd a2bf
00000450: 9c59 4115 6962 64bf 98ca 07de d5b7 a2bf
00000460: eca2 a282 6815 9bbf 5efc f310 0805 a03f
00000470: a5ae ff80 ff74 983f a6f2 d526 7515 8cbf
00000480: c928 8511 7f67 6a3f a369 5bea 2e8c 8a3f
00000490: ea62 bb08 f3b9 77bf db50 b6ec 322f 81bf
000004a0: 862c 108d b6b5 753f c033 1dd5 4b33 84bf
000004b0: 3c06 9e46 6ab1 813f 638b 7bbe 5574 883f
000004c0: 3079 1251 015e 7d3f aa34 609b e418 6dbf
000004d0: 3c08 f47a 1774 6f3f 514c b92f f858 803f
000004e0: 13be da42 edb9 8ebf 9a26 2f5f 4362 89bf
000004f0: 4204 4ad7 6bce 5c3f a911 f05a 402a 6abf
00000500: 67dc 59b0 62ab b3bf c4e6 022a 1abf aa3f
00000510: a46e e00d 0725 b13f 5c82 3037 fd14 96bf
00000520: 37ad c40b 1433 9b3f 3469 c05f 9468 72bf
00000530: 5a2b fcc1 6b05 7e3f f25e 2628 9f7c 94bf
00000540: 08ff 9020 30d6 94bf 1601 48e2 dfc2 a3bf
00000550: 1c5f 3a5d 498d 8ebf a10d b497 2af7 6bbf
00000560: 336b 424f 0ee6 8a3f 652b 72e4 40c1 7a3f
00000570: 40dc bcdd 4cc9 7c3f 53d6 98b6 acc6 6d3f
00000580: 24b7 4655 2a6d 853f 5e59 32d6 b816 7a3f
00000590: f44b dcea 75ad 81bf 0feb b957 b958 49bf
000005a0: 6b94 5802 c04d bd3f aca8 f9d2 e957 89bf
000005b0: 8c74 3db7 16a0 74bf 94c8 5be8 ce72 9ebf
000005c0: a7fb d830 ef2c 83bf 4f2b 2ee4 25d8 90bf
000005d0: 21b8 ddb4 b7d6 913f 9553 fcd4 9db0 8bbf
000005e0: 6679 89bd 46a9 91bf 613b 1f46 391b 93bf
000005f0: b37b 3d78 ec7c c73f 3cfb 00fc bb02 a6bf
00000600: c020 7927 5b9c af3f 1989 6fb5 fb6b a7bf
00000610: f2fd d48e be5a 99bf c330 7145 ca5d a5bf
00000620: d879 b471 3aa3 a03f a6c2 9aed 2a4e a5bf
00000630: 7465 83fc e614 99bf 95dc 0d1b 346b aebf
00000640: 3d28 fe7f a331 d93f b8b3 319b 1030 bcbf
00000650: cd56 def6 7fa9 c73f 7990 8132 46dc b9bf
00000660: 4093 4f00 e294 96bf 7199 4c90 b5bd b8bf
00000670: 22f3 e0ba 0c04 b73f 0605 05c1 d476 c0bf
00000680: f0b5 bd12 d458 b3bf 9b8c 3dff 269c c1bf
00000690: efd0 36c4 c965 a63f c4ca 2fe4 5e00 75bf
000006a0: d9ce a9f9 3a6c 94bf 095c cf08 3636 513f
000006b0: fda4 cd97 6d58 7f3f bc83 9e3f e500 72bf
000006c0: 288f e0ae 3789 873f 3688 211b a885 94bf
000006d0: 2c11 aba9 6e17 7d3f 94d9 1d48 7d50 a1bf
000006e0: a2cf 40b0 4cfe c33f fffc a491 ba6a 94bf
000006f0: d0bf 07ee d24b a13f 124b a71e 9e73 a6bf
00000700: f3dd 53b4 c9ed 9dbf ebec 268f e57a a4bf
00000710: 6367 4230 322a 903f 0784 3ddb be1a acbf
00000720: ad48 f964 d375 98bf e289 be87 0726 a8bf
00000730: c347 7407 4a19 60bf 48ad 24dd 7f7d 6abf
00000740: db9f e0f9 ff37 63bf 62da 9104 389a 72bf
00000750: 35eb 4097 d11b 8c3f eb53 9e2c aa9f 4e3f
00000760: 5eef 991c a39f 883f 7fef f4bf 61db 6abf
00000770: fe70 71f6 741d 7c3f 70ac 97dc db75 5ebf
00000780: 3e25 fc25 9e9c b1bf 2358 c79c 1dc5 9a3f
00000790: 222d e61d 474d 9d3f 1919 eaec 0ce0 74bf
000007a0: 9692 619c 9250 8b3f ab07 600c f7d7 843f
000007b0: ed4e b64d bed7 5f3f 8c61 4d7e 2e3d 59bf
000007c0: d9c7 b024 6f90 89bf a934 5d5c 2f76 94bf
000007d0: 61e2 0889 a7b2 82bf 1ed0 8cba fd54 913f
000007e0: 2db1 333f 20a7 8b3f 0d24 0a7e 1fb5 89bf
000007f0: 93bf e4e2 4f5e 913f 1a3d 9174 2c68 773f

b2 f8 [1, 10]
-0.2060061249703955 0.22820352076662734 0.5220110269157927 -0.1522758864939683 0.13144547160509507 -0.05233919624685469 0.09669068781043179 -0.19300670332427167
-0.1810961630116266 -0.19362663305082545
00000000: 4803 c3a0 685e cabf 112a 43e1 c535 cd3f
00000010: 8c26 1878 50b4 e03f 1d02 3bb8 c67d c3bf
00000020: aa26 e088 34d3 c03f c1bb 5b00 34cc aabf
00000030: 993a f98d b8c0 b83f eedf 5793 71b4 c8bf
00000040: 6173 c8b8 282e c7bf ea3f 4bec c1c8 c8bf
