data/weights/complex_mlp_weights.npz (npz, 824170 bytes, 6 tensors)

W0 f8 [768, 128]
00000000: 71c7 65c2 90db 96bf ab86 935b f6d2 97bf
00000010: 1e55 3b82 02dd 74bf c001 7af9 af79 87bf
00000020: 1c69 66f8 262b 923f 50d3 ebb0 1ae4 80bf
00000030: 7d86 5f8a be3b a03f 1d8d dc85 37a9 44bf
00000040: 2204 26b8 6920 77bf ec3f eebe e00f 53bf
00000050: 61ba fa9e f819 78bf ac50 9052 51da 8f3f
00000060: 6fbe 4714 df84 a03f 4da2 f533 fbbf 97bf
00000070: 77d7 2aa3 3c04 9b3f c446 1640 20c2 9e3f
00000080: 82ed f22d 3ce0 9cbf 90fd 0c5a dfaf 7f3f
00000090: 4148 6197 7c10 973f 85d4 ee87 60e2 723f
000000a0: 44f0 5626 e161 8ebf 11ed c0d9 86bc 8abf
000000b0: 8062 2aff 0b49 523f b465 de52 e8ab a3bf
000000c0: cf41 ccb2 fb31 98bf 617d 4594 97a0 92bf
000000d0: 6339 49c1 b3f0 83bf 0ae9 a3e9 cfd1 3fbf
000000e0: ecd8 3aea 6605 77bf 0841 9668 e952 7abf
000000f0: d872 b122 e0f0 123f 18d0 3cef c4a2 823f
00000100: 9abb 027a fb74 7fbf 6bd5 2376 3533 9e3f
00000110: 50f3 8acb a130 9e3f 9e2d fd0b b5a5 813f
00000120: fb39 938d a746 74bf 3177 a950 dc65 803f
00000130: c971 ce7d 26f1 90bf e642 b69b b8b4 89bf
00000140: 88a6 3ba6 dc3c 753f ec6f b5c9 5619 a1bf
00000150: a149 78f6 ceb0 59bf c0d4 73ed b478 5cbf
00000160: 16b8 7085 e45a 84bf 22fd 9ce8 f51b 803f
00000170: 39c9 7030 5696 a93f f267 b917 d92e 6dbf
00000180: 4964 c335 cea4 853f 58c7 e7ff b4e8 6ebf
00000190: 1867 d54c e574 65bf 7174 275f 1cb0 97bf
000001a0: c6fc ad47 5c8a 8abf ffb5 49de ab6c 95bf
000001b0: 76bf 6228 cdf6 8cbf 5946 81bf ebf6 64bf
000001c0: eeca 8529 f053 88bf 2770 4f9e 2d76 47bf
000001d0: 0220 48e9 e644 8bbf bf86 6f94 f485 a03f
000001e0: b7c7 b077 0157 683f f78d c064 c9fa 643f
000001f0: 8d91 6a73 2e93 773f 8f83 7b57 2640 643f
00000200: cf80 3ec8 fe90 77bf b35e 59b0 d64a a73f
00000210: 269f f2d9 9d1d 513f ff37 c2ce b001 4fbf
00000220: c60b 3456 cd23 593f be57 ecb7 e31a 7cbf
00000230: 0f66 bb1a 919b 813f 2883 5d7d d5a9 833f
00000240: 523e 00d5 c585 a03f ca33 cbfa c222 69bf
00000250: 1a98 1154 d9e2 963f 86f8 8b49 5980 9a3f
00000260: 21e7 9865 f5de 90bf f4e1 6064 4c78 91bf
00000270: af79 5fea 10c6 a43f e36d cdb9 296a 8abf
00000280: 7f4e fb98 1694 7d3f 4f2a 6835 b809 933f
00000290: 2b31 b4a3 d00a 5ebf 1b6f 4af2 fd05 81bf
000002a0: 3f0d ff09 11d9 703f b1f6 cfe5 18d0 95bf
000002b0: 4bcf c5f9 470a 983f fd4c 9211 739e 85bf
000002c0: 6d7c 2377 cfe0 84bf 7500 c6dd 55d9 793f
000002d0: 2a36 6ffd 4e09 91bf 5e89 1b91 5f8d 7a3f
000002e0: 6db9 ba10 7afb 6bbf 7dc5 d50f bb1b 8c3f
000002f0: 038d cc4f aae6 913f 7900 b75d c83e 803f
00000300: 8866 eabe c82a 7fbf eecb 110b a343 9abf
00000310: e59f 0540 7729 96bf 4bbf 04c7 ea89 a0bf
00000320: 929e f5d6 6a52 783f 7cbf 3ded 6a9a 7abf
00000330: d377 1b23 c22c 92bf 500c afb6 8df7 87bf
00000340: a6b2 a8a7 6c17 a6bf 8ace 27b1 d570 70bf
00000350: 5467 b217 d195 883f 2256 2bec f48f 803f
00000360: 7138 bdb9 6376 7dbf 3ffa 9164 5f14 91bf
00000370: 72b1 fb7c 72c4 923f 7cba 35b9 654b 7d3f
00000380: 0e42 c687 7560 783f 3293 f4a5 4202 8b3f
00000390: 93d4 b4df fc2d 92bf 3681 3c68 b34f 853f
000003a0: 65d9 71b7 24db 86bf e00c 3394 3571 86bf
000003b0: 011f bb1d e0a2 75bf d9fb e2d1 1b30 98bf
000003c0: 4cbf 4c1c 34af 8ebf a4fe 0a92 5c34 943f
000003d0: 04ec 7a53 0b3d 673f d039 f332 de43 873f
000003e0: 8a89 a250 0531 7d3f 6605 ef6d 4a73 6abf
000003f0: c3cf b5f3 08de 853f ed99 544a 9a04 99bf
00000400: 87db 30fb 3d89 953f 0b8d 8422 f91c 983f
00000410: 00e2 b377 0255 7b3f 6f73 5e64 6cac 92bf
00000420: 7637 1ebf f860 4abf 45cc 1d99 fac6 6e3f
00000430: a1d3 af8c e9ad 65bf c147 317f f3a2 983f
00000440: beda 0136 a928 8a3f b32c 261b 8b6c 893f
00000450: 8731 346c a6b1 8c3f 128c 9a8d 1c4b 81bf
00000460: da0d 74e3 e9da 94bf d5e7 8be6 e9ca 993f
00000470: 6397 daac 0539 86bf ee57 ea61 e600 4e3f
00000480: ecc2 d647 f267 773f 5926 2a17 7c13 7e3f
00000490: 4e58 6cbb c25e 5a3f bb9f d029 90fc 96bf
000004a0: 57b5 7707 27b6 7bbf 5b61 ca0a 4f7e 8d3f
000004b0: d463 9262 d1f6 77bf 9128 618d f70f 7e3f
000004c0: f8e3 d031 75a9 8abf 1282 2128 c124 8e3f
000004d0: d545 9164 434d 863f 1127 a009 1b74 77bf
000004e0: d91b d2c2 3fe6 94bf ed0a 8fa1 a4a9 6c3f
000004f0: bf38 0f6c 9963 8bbf f218 6b84 7bd7 86bf
00000500: 8f49 0297 0330 843f e50a 2b3f 6976 85bf
00000510: ae18 d9c7 ed23 7ebf bdb6 aaf7 6f2b 61bf
00000520: a89b 89cb 26e6 953f 6a2d ff87 f5d3 8cbf
00000530: 1490 43fd db7a 6f3f 49e8 799e de15 843f
00000540: 9388 dcab fe76 593f fe77 649d c09a ad3f
00000550: fffd 9dc5 6b9e 6ebf 9831 6b12 8d8a 7ebf
00000560: a851 50d8 8fe4 543f c5e5 5688 890f 813f
00000570: de42 5015 a6d0 953f 2303 cb59 1697 8a3f
00000580: 5350 13d1 a493 8e3f 1bac d7b1 d0dc 7f3f
00000590: 60c1 595d e633 8a3f ba1c 1e07 ca7d 953f
000005a0: 9fa6 0b3d 7ce6 9e3f 740f 310d 461b 943f
000005b0: eb06 0302 6844 243f 01e2 8be4 0ec5 99bf
000005c0: ed8b fdf9 03e1 88bf bff9 2a4c d726 793f
000005d0: 2bec 034c 37cc 87bf f1d7 10e1 0369 95bf
000005e0: b861 cc16 073c 8bbf ef96 8ba8 b78d 80bf
000005f0: b301 0caa 7c64 8fbf 4fd4 1c4e e2dd 4a3f
00000600: dca6 a184 e101 65bf 2a2c f5e2 7558 abbf
00000610: 76b5 193d 249f 94bf 5ca2 0027 284c 5e3f
00000620: 4cc6 7f5b e61d 453f d781 7c46 6a11 75bf
00000630: e9ae db61 4641 91bf c78a 83dd 2707 80bf
00000640: 8824 7584 a3f1 5a3f 8c2b cd59 b147 80bf
00000650: 1f6a f355 b19b 8ebf 295f 3bd2 a888 94bf
00000660: 8981 2c59 0d9c 85bf aa68 2fe9 b8e4 74bf
00000670: 7260 f054 8bd3 8e3f 380b d6d6 6cab 6c3f
00000680: d0ae 1ed9 6281 8ebf a5a8 b0d5 065f 91bf
00000690: 85ce be34 d12d 813f 478e 384c c761 833f
000006a0: e2e9 d29e 0cdd 94bf 9d5b 3b3a 30ad 923f
000006b0: 91da 2617 3dcf 85bf 2b34 b8d1 1f67 68bf
000006c0: fc26 e5cb eaf3 4abf fbb4 41fc 6191 6cbf
000006d0: e51d 6d2b fa82 913f ea5a e910 f0c6 75bf
000006e0: 4a86 4da7 ef3f 99bf a19d b24d 2ecd a4bf
000006f0: d730 a151 6b13 953f 62ee c94d 2980 94bf
00000700: 8de9 ea93 f2fb 6fbf 4883 c2ff 610c 8f3f
00000710: f357 840f 1f79 713f df15 2c62 a2bc 7cbf
00000720: bfae edd1 533b 95bf 7be8 2cc3 b0c7 8b3f
00000730: 4a69 4825 3f02 92bf 6556 c056 5140 76bf
00000740: b768 a20a 2619 913f 8355 4292 0bd1 7f3f
00000750: 51d2 7652 d9d2 51bf e5de 3755 8609 5cbf
00000760: c2e0 b458 da63 77bf 9d97 191d e2d7 7e3f
00000770: cf9b 8a5b 39f9 833f c664 e289 45ef 6ebf
00000780: 7b3b c4f0 93d2 653f 2f47 f2ad 56aa 98bf
00000790: 29c8 2df1 8051 813f 772b e50b 649f 87bf
000007a0: 67e1 75aa c8aa 96bf ee15 ff0e 475b 973f
000007b0: 7282 2c8e 434c 7b3f 4cc9 108f f89b 723f
000007c0: 9441 ea73 9cc7 8bbf 351b 9334 6fcb 6ebf
000007d0: c017 5feb 6ceb 8dbf 6601 52c6 30b4 813f
000007e0: e76a 7c77 ae94 9abf 2895 08aa c09c 8b3f
000007f0: a2f5 a1d1 b713 a23f 7ed9 fa88 0a3d 44bf
-0.022321950783811887 -0.02326569494187562 -0.005093583869628019 -0.01146256904689913 0.01774273768533262 -0.008247574352461179 0.03170581282735172 -0.0006305237872975853
-0.005646145788319708 -0.0011634535582949425 -0.00588414304335902 0.015553126651902303 0.03226372835694923 -0.02319328789363544 0.026383349856323925 0.030037406837044825
-0.02819913893175175 0.0077360844305184445 0.022523829211714256 0.004610421251460943 -0.014835127813846445 -0.013054898758233098 0.0011160485416096544 -0.03842092525082866
-0.023628170764881603 -0.01819073526837423 -0.009736446701165751 -0.0004855282401333849 -0.005620386134685722 -0.0064267270585249905 7.225387587212904e-05 0.009099520255041724
-0.0076799224190570396 0.02949222119874177 0.029482391403451047 0.008616842678427269 -0.004950193885817185 0.00800678368721783 -0.016544915608038644 -0.012551729442550518
0.005184995566858704 -0.03339644634499436 -0.0015680333252744221 -0.0017377631064026539 -0.00993898899295335 0.00786583057526841 0.049975102818637436 -0.0035623779383913085
0.0105682478101007 -0.0037730727337867247 -0.002619216777628785 -0.02313274698996221 -0.012959214150895081 -0.020922360842112294 -0.014142611308073798 -0.002559147305910153
-0.011878849284334216 -0.0007159922357646884 -0.013315013879960706 0.03227199851950279 0.002971175066272171 0.0025609906642942676 0.00575559754239342 0.0024719952451594594
-0.005753512614234248 0.04549284842204084 0.0010446588055774224 -0.0009462464636429412 0.0015344147912521463 -0.00686158134955933 0.008597501400276845 0.009601276291222385
0.03227060532674088 -0.0030683334538026174 0.022349735027454277 0.025880236734331173 -0.016475519491201077 -0.017060464502920383 0.04057362423894816 -0.012897802336445835
0.007221306106390934 0.01859176469774076 -0.0018336331839377644 -0.008312210041644221 0.00411326080206048 -0.02130164053595846 0.023476719493785308 -0.010556124662150607
-0.010194416831323683 0.006310782828563889 -0.01663707181778854 0.006482480342784617 -0.0034158119286395367 0.013724767132518018 0.01748148071341139 0.007932248458814893
-0.007609161532536775 -0.02564863925040222 -0.021642554552641875 -0.03230222396302781 0.005937974302788656 -0.006494920427812075 -0.017748864548472753 -0.011702639710966661
-0.043147464243110265 -0.004013857588222822 0.012004502807304064 0.00808707566958861 -0.007192983200935741 -0.016679277909583453 0.018327511671416948 0.00715198264820904
0.00595136556911814 0.013187905015522004 -0.017753554490998424 0.010405923479595996 -0.011160170410431556 -0.010958117089450103 -0.005282283261926813 -0.0236210200171135
-0.014982611764565633 0.01973099366546073 0.0028367253506451657 0.011359916620134053 0.0071268279663477905 -0.0032288030338071703 0.010677404344029534 -0.024431620394489362
0.021031349617455255 0.023548023921773836 0.006672868384378194 -0.018235868097338178 -0.0008050169546878056 0.0037569899076799495 -0.002646404410820272 0.02405910934277933
0.012772867165251053 0.012414061323190095 0.014010715653534301 -0.008444045134927722 -0.020366339213991093 0.025188116737787276 -0.010850948655683096 0.0009156346239531635
0.005714365395235826 0.007342800835098717 0.0016095067673567334 -0.022447826912099105 -0.0067655109955756165 0.014401071087647812 -0.005850618276917314 0.00733944606879268
-0.013018527586710946 0.014718541180799103 0.010889555460525205 -0.005725961318612042 -0.020409580484308385 0.0034988608790354953 -0.013373564348423959 -0.011153187731349299
0.00985720448105523 -0.010479757538069243 -0.0073584831530465866 -0.0020959078659278083 0.021385770962662726 -0.014076154911797107 0.0038427635828259896 0.009807337962446054
0.0015542494797462821 0.05782129212660435 -0.003737650386881119 -0.007456351339623878 0.0012751965271081498 0.008330416177034014 0.021303744364618342 0.012983488669648552
0.01493004572913762 0.007778945172940001 0.012794303630670967 0.020987660107064633 0.030176106668398203 0.01963529067531007 0.00015462655665570506 -0.0251657797807372
-0.012147933069803296 0.0061405572948260425 -0.011619979865363636 -0.020908413516927685 -0.01329808748555271 -0.008082804518788815 -0.015328382434291443 0.0008199076657776724
-0.0025643734598376055 -0.053409275011823645 -0.02013832686355018 0.0018492118943048896 0.0006444334785539823 -0.005143561494862023 -0.01685056659964249 -0.007826148459974104
0.0016445252275210393 -0.007949243119261394 -0.01494539779235021 -0.020052564460313924 -0.010551552089567167 -0.005100939090846671 0.01505192616427584 0.003499710632867272
-0.014895221949550758 -0.016964060585600866 0.008388170644912716 0.009463841451242362 -0.020374486154404077 0.01823878627223118 -0.010649182576213863 -0.0029788609952050757
-0.0008225342242351437 -0.0034872926499277513 0.017101200962569413 -0.005316674955415416 -0.024657959543566123 -0.0406279058309409 0.02058189092376569 -0.020020146725512673
-0.003904317650577477 0.015160337083501965 0.004265900927085997 -0.007015833197106385 -0.020734128654494862 0.013564473110467148 -0.017586695337834336 -0.005432431917162005
0.01669749679477014 0.007767720413672466 -0.0010878679548628376 -0.0017112552494590813 -0.005710461536459545 0.007530101067095088 0.009752700906870885 -0.0037762029815665314
0.0026638879263666793 -0.024087290160031912 0.008456237182802155 -0.011534482586872603 -0.022135863689500292 0.022809133806523656 0.0066645277863989095 0.0045432767229150565
-0.013564321792075153 -0.003759114454257607 -0.01460919469162636 0.008644467403656275 -0.025957799952361162 0.01348257559682027 0.035306686725543615 -0.0006176282349404231

b0 f8 [1, 128]
00000000: d5e5 8fed 29ec 8f3f 50e4 9073 9511 aabf
00000010: 3c7b fcec 3d1d 77bf 0a2a e027 ad5b 98bf
00000020: e6bc ba68 c8ee 60bf 20ee 4644 c7c2 193f
00000030: 7bc4 7763 719a 8a3f 3694 09e7 b12a 963f
00000040: 047e 7d0a 39d4 83bf 244a 1810 42ca 323f
00000050: d95a e49c 8ac0 483f 5225 6df1 6b9e 533f
00000060: 467b 03da 049a a1bf 2fbd d17c 053c 953f
00000070: fab6 28df 7146 a5bf 0dd2 be62 e411 973f
00000080: 1590 3991 1c0c 8b3f 2752 2ecd f020 963f
00000090: 3fd5 6d2e ac1e 29bf d078 587c 6cf8 8bbf
000000a0: e9ad 2579 0f06 7e3f 3a22 746f 040d 7ebf
000000b0: 889f ab2b 5420 fa3e 2ea0 8b41 0215 94bf
000000c0: 9ba5 a22f c9d6 74bf 7c87 7940 0d46 81bf
000000d0: fedf 753f e919 043f fab1 eb3f 49e5 44bf
000000e0: 0d43 9226 fe48 a1bf b33d 4614 8a42 23bf
000000f0: 23a9 40a3 5f57 5dbf 3cfc 37ea bbdc a5bf
00000100: d961 5db0 2452 eabe 1a61 0332 1503 5e3f
00000110: 5a2b 886e 41b4 92bf a932 69c5 c14e 423f
00000120: 0462 6897 0991 933f f3c1 fd03 4184 93bf
00000130: 814d 60b8 ebff 6fbf 45bd b203 c137 193f
00000140: cb40 0c04 7581 32bf b860 f4ec 0042 b1bf
00000150: a699 1c43 7a70 86bf cf57 849d dfe4 5abf
00000160: 2e27 630d c123 1abf f7f4 e41c b921 903f
00000170: 232b 4181 7611 963f 8365 9952 2c36 8abf
00000180: a218 5f16 d7e9 85bf 2dab 7166 8abd 913f
00000190: 48e4 2c70 f45f 993f 3fd1 e267 8224 93bf
000001a0: a0fb cf53 7c15 993f ab5a 990f eb46 293f
000001b0: 1e42 300d 6c54 42bf 9faa 83b2 1f6b 8ebf
000001c0: efa1 6f9b 7283 213f 235c 4239 d96c 94bf
000001d0: 5ba1 65ca ce7f 303f d8ae 7c75 c44c a1bf
000001e0: 689c b5d3 6069 82bf a4c4 b640 e7fe 7abf
000001f0: e689 1e45 ae09 89bf 45fe 8a2e 2bac 513f
00000200: 8cb2 ed46 df84 443f 2035 0224 f42f a5bf
00000210: b068 736b e333 a4bf 97f6 e8ac 4e5a 31bf
00000220: dd1d 4a56 0956 7abf 823c c9f5 b36e 04bf
00000230: 4d89 f1e7 3624 90bf 3425 e22b 887e 70bf
00000240: 2bdf 4a35 8727 883f 2921 a2d8 915a 303f
00000250: 18fe a10f a1f5 88bf 4777 0ade 102f 8fbf
00000260: 0000 0000 0000 0000 4c80 70a2 774f 8dbf
00000270: cef0 8fc3 1baf 953f ba9d fa22 ff7f 8e3f
00000280: 190e 9aee a587 ecbe fdef 1611 6319 71bf
00000290: bffe d293 f122 36bf 0e8a bd57 15ea 78bf
000002a0: 5c00 46cc b0d4 7cbf 5e20 aef1 b586 993f
000002b0: 7ab5 44da e366 1c3f bffa 1fd4 fb1a 273f
000002c0: 1745 ecc8 cfcb 79bf e1ff 3eb3 4887 57bf
000002d0: c21d c515 d821 933f 2063 42c4 7460 60bf
000002e0: 36ce d39f c221 97bf c41a dfaa 3786 a7bf
000002f0: 5204 5e5d 314b a13f eb0b aa35 14e8 92bf
00000300: ec3d 7835 9107 0b3f 6917 e97b b024 813f
00000310: 646d 923f ca11 72bf c844 3d40 de27 a1bf
00000320: 25f2 41b5 ba87 54bf 172b be11 3d0c 12bf
00000330: 1acb 045d 6fb8 64bf ac91 535c 4670 3fbf
00000340: 909c b6d9 3992 933f 6697 911f 7698 d3be
00000350: cf4c e7be 866f 77bf 8954 8a42 8d53 73bf
00000360: b1d0 b121 eea0 793f 17e8 59b1 13f3 60bf
00000370: 46f3 dd2e 2240 803f 5c84 bdba 1d95 533f
00000380: e0f2 9016 b315 8e3f b28a 17f4 25bd 98bf
00000390: fc50 20b2 7c89 e1be 3419 ff22 a151 82bf
000003a0: 0000 0000 0000 0000 2c68 e63d cf93 953f
000003b0: 1024 50fe 80a1 22bf 247a 4cf9 0d01 69bf
000003c0: f7ca 51e7 2aa3 45bf ad91 28b8 9de7 83bf
000003d0: 40c5 12bf f9f9 33bf c06c 3887 f921 643f
000003e0: bd12 b241 125c a0bf 06a3 4338 18ff 3e3f
000003f0: db71 beeb f1a2 983f 225b ee73 1daa 8d3f
0.015587165415115326 -0.05091540370671821 -0.005643121621487886 -0.023787217673126228 -0.0020669855346891917 9.826985576116181e-05 0.012989888999955781 0.021647243238835233
-0.009682126648555396 0.0002867137228303193 0.0007553746052363044 0.001197438634067478 -0.03437819634722543 0.02073677610718255 -0.041553076258749 0.022529190566006153
0.013206694776450015 0.021610033534289166 -0.00019164897750171582 -0.013657424492575038 0.007329998438176479 -0.007336633039138502 2.4915966359367474e-05 -0.01961139226014568
-0.00508764828024635 -0.008434394388306059 3.834002557828729e-05 -0.0006376845993521501 -0.03376001568643092 -0.00014694152390547013 -0.0017908510171858536 -0.04269969209780597
-1.2550769962580668e-05 0.0018317896829583348 -0.018265745517094124 0.0005587049625517998 0.019107961527057085 -0.019059196346860884 -0.003906212225965156 9.619823042571637e-05
-0.00028237444716784345 -0.06741338524841722 -0.01095672147091593 -0.0016414817565126754 -9.971490667051434e-05 0.015753643406459763 0.02155099071414236 -0.012798639555671404
-0.01069992100736911 0.01732460260647455 0.024780101153030892 -0.018693959799479073 0.024496023765091857 0.00019284839054264 -0.0005593803019810527 -0.01485275996716001
0.000133617153294865 -0.019946474189591733 0.0002517585620780604 -0.0337888139168549 -0.00899005552373762 -0.006590751010137872 -0.012225495800355323 0.001078645868048415
0.000626191160205973 -0.0413814825015868 -0.0394583767571971 -0.00026478215014323056 -0.006429707024501377 -3.8971774050205514e-05 -0.015763147265155642 -0.0040269202419350066
0.011794143976075219 0.00024953900049997036 -0.012187250413489045 -0.015226489807271938 0.0 -0.014311728138693657 0.0211757982360588 0.014892571692441393
-1.3604104839310412e-05 -0.004174601535336106 -0.0003377761639278102 -0.0060826142979260155 -0.00703877507874048 0.024927943111407884 0.00010834470464678682 0.000176280251309854
-0.006297885570135684 -0.0014360628092475668 0.01868379242776342 -0.001999118861999341 -0.022589722638214314 -0.04594587288697974 0.0337768007730196 -0.018463435912519015
5.1554793284332715e-05 0.008370760709236884 -0.004411497147113284 -0.033507294980731184 -0.0012530635185889008 -6.884691941714777e-05 -0.0025293517175212334 -0.0004797145632678089
0.019112495339552782 -4.6719437643889195e-06 -0.005721594191032866 -0.004718353077483369 0.00625699062503686 -0.0020690331101009918 0.007934824996249323 0.0011952200247480537
0.014689826131978945 -0.02415904333418934 -8.362321356294039e-06 -0.008944758301265489 0.0 0.021071661141469786 -0.0001421422922762987 -0.0030522606779321993
-0.0006603202333635695 -0.009719116385050375 -0.00030481669734701636 0.002457606658720829 -0.03195244838665221 0.0004729684954001698 0.024059085858981404 0.014484624958453877

W1 f8 [128, 64]
00000000: 602f 6aee e6c6 6ebf 830b 6f0f 2f4e a5bf
00000010: d286 8996 e042 7abf c145 7411 3ba9 8dbf
00000020: 0977 b5cd 8e76 adbf 3b29 c9cc 06b6 a93f
00000030: 5353 5dd4 25a4 aa3f b092 8c55 84d0 48bf
00000040: 419f 3796 7e63 71bf 1ec9 23c6 3091 be3f
00000050: 9faa da7f 17ac b7bf 3b21 5c80 e4e8 c23f
00000060: c239 deaf 3825 813f 8a8f fcc6 a58f 92bf
00000070: eed3 76fb 888f 7e3f 4dc2 ed34 148b 603f
00000080: 0d5d a81e a595 a2bf d955 ee62 df6b 99bf
00000090: e06e be67 bb3a c5bf 52e4 6504 d61d a3bf
000000a0: e37e e8cd cddf 8abf c8e2 c0db 9ff6 80bf
000000b0: ecd1 4b48 71c5 bc3f 447e 2ecc e5ca b3bf
000000c0: 901f 6df2 5527 833f 94a8 0cb2 f530 883f
000000d0: 9388 0358 f9a6 c23f 019b 3588 a53f 8bbf
000000e0: 1474 91d3 5f04 9fbf 464f 411f 2d51 a13f
000000f0: eac1 fb80 7b47 88bf 44de 744d 594e 8f3f
00000100: da6b 2489 f982 8bbf 5d36 7b69 10e1 743f
00000110: 0066 271e eb98 a7bf cc38 c9ff c01c a3bf
00000120: 299a ce27 b9cb a2bf 9893 161c 1d2f 49bf
00000130: 92e9 f07b e22c b0bf 5980 dd42 6b42 be3f
00000140: 95c6 0e1f d433 afbf 7429 f286 3186 a0bf
00000150: 2cba c750 4823 afbf 69db 6802 8575 a13f
00000160: f038 405f 8832 8a3f 6dec ebb8 206b 9ebf
00000170: 6a54 f781 438c afbf 1c27 d3f7 800b 873f
00000180: 4cae d976 c9e3 823f 85ee 8178 a24e c03f
00000190: eae8 11da 59db 863f c25b fb79 acb7 c93f
000001a0: 002f 4b5d 8333 8dbf 57fe e236 d905 833f
000001b0: afaf 614d d4bd 863f dba1 cbe5 d962 9abf
000001c0: 2ba8 8f1e a79e c33f e6f7 7057 90ec 90bf
000001d0: 352f c006 28a6 8cbf 8187 ae09 7be4 8e3f
000001e0: 713b 402a 0e4a 893f e901 d9ec faac 5dbf
000001f0: aa52 54f6 0bea 8c3f b286 082d 043e 90bf
00000200: 37a9 886b 7cea 51bf 7e55 0b01 4a2b a43f
00000210: e61d 9b00 f8b2 803f 126e f83d c3be 683f
00000220: 6781 a434 4509 c03f 37cc e1a8 6144 c43f
00000230: 94c4 8d1a dabc d63f 931e cd9d bb9c 86bf
00000240: 323b 9263 0b03 6dbf 64f6 e43e fc18 c0bf
00000250: 6218 a02e f031 98bf 7e2b a388 a381 b7bf
00000260: e534 a19b 96ed 72bf db00 15e9 f12c 5a3f
00000270: 0a5c ee07 7276 7b3f a97a 1a08 2863 9fbf
00000280: 4456 f002 0106 c23f cc08 1133 7922 ad3f
00000290: 0ff1 5963 9154 a33f 5dbc 72f7 6c7b b73f
000002a0: cf49 e824 9da5 803f b5e2 ba6e 0aa5 56bf
000002b0: bd41 5462 0ef0 cf3f 88c9 7758 7dc4 a53f
000002c0: b91f 5c85 fc03 99bf fb9d f63a 1623 bc3f
000002d0: feab 4e8a 48db b6bf 2343 953c 3eae 8c3f
000002e0: 98b1 c2ac 96b9 933f d601 0412 9be9 d13f
000002f0: 94b3 69aa 3cc5 3a3f 18a8 766d 759d b03f
00000300: 081e da6a 7236 823f 8ba5 dd24 76c3 733f
00000310: ae95 47a4 1557 9f3f 5d33 f0aa 9fcc 523f
00000320: 0fb2 e7c3 c00f c03f cecb d50f 6765 b83f
00000330: 4876 219e d1ed 9c3f 54ac 67dc 3b5f 813f
00000340: e32e 35dc f00b b33f d073 c1ec 3280 82bf
00000350: de89 cf0c fd76 99bf 5011 afdf a50e a4bf
00000360: 6599 c3d6 6142 d03f 7223 a094 749e b03f
00000370: 105a f23a cb57 ab3f a94c 8747 b18b 78bf
00000380: 85bb 8026 9489 c1bf 2d0f 7df7 a885 a7bf
00000390: 7d59 be12 dbb0 9ebf b079 b43a aedf c73f
000003a0: 01a7 533d 0aef 8b3f 3620 9719 49c5 8f3f
000003b0: abac a42f 4236 89bf 1f24 724b fc52 babf
000003c0: 79f6 b5c2 35c3 bbbf 9f0b c889 6da0 9a3f
000003d0: 20c7 3076 b2bd 75bf 92f2 8782 4e79 c53f
000003e0: 6a5e d63c 447d db3f f4da d971 cc5e c83f
000003f0: 4d35 ea0f ee11 a1bf 2b8b 9842 9317 68bf
00000400: c236 177a b7c2 8bbf d0fc fef0 7321 7dbf
00000410: 5041 6685 4766 903f dc2c 6027 9383 73bf
00000420: 385a 0ff1 a428 803f 64f2 f1d3 29ff 993f
00000430: 3862 058d ecae aa3f 2a97 bd22 c6f0 86bf
00000440: 8f44 c5d0 1227 70bf a1ed 06a3 c303 9abf
00000450: 548a 46b2 812b 76bf ea08 131a ae1d 92bf
00000460: 34e0 da8d 0a02 683f a824 3b0c 449e 793f
00000470: 24ac 67cd 77fc 7fbf f19c 7383 b78d 80bf
00000480: 483b 1065 759c 803f 7f45 933c e64c 533f
00000490: 8030 0f45 e2c0 913f e0c7 4ec2 189e 903f
000004a0: 24ab 57f5 da64 31bf fe91 b7ca 8797 77bf
000004b0: 4a10 1f03 3f43 953f 4b23 9052 00a6 7a3f
000004c0: e5bc fe8b 4581 77bf 5612 5a17 d805 913f
000004d0: 76eb 1407 d07c 8bbf 542a 6f1f 7d26 8c3f
000004e0: 1380 7c91 7e85 803f e259 4916 0d5d 9f3f
000004f0: 3f4f 61b0 7820 8a3f a0d1 fd59 a4f7 80bf
00000500: 511b 2992 dce3 76bf f662 9ce4 5c7d 46bf
00000510: 6592 a3a4 5bf9 7ebf ef36 528e e19b 8f3f
00000520: c6af b1d7 83c7 9a3f e608 0fd1 c936 753f
00000530: 8d90 07ea 6821 913f 7c0e 8bd9 092f 893f
00000540: 87c5 e449 92c0 463f e17e b2b2 040c 90bf
00000550: 51dd b900 e829 79bf 53fc f435 8531 76bf
00000560: 263e 0236 284f 993f dfce bb77 6c75 8b3f
00000570: 4026 a071 94cb 81bf 7dd2 0d21 655e 323f
00000580: e0bd 1dc4 3082 a2bf 667c 2fce 85c7 7e3f
00000590: 1e1c e0d2 a03b 96bf 9005 5208 349c a13f
000005a0: 7292 7706 1a82 643f fd1e f3c2 c7a0 72bf
000005b0: acc6 1fe3 f98d 65bf 5d13 5ebf d595 8ebf
000005c0: 3e8d 0096 b3fc 8fbf d2df 1c95 0740 843f
000005d0: 1c7b a887 d4b4 7cbf 8f40 5204 d376 54bf
000005e0: 8192 fb86 4caa a53f 40da 2646 d824 873f
000005f0: e513 012b 4d44 77bf 2cee b386 631e 5abf
00000600: 6cbe f31c 326f 78bf 3165 68d7 60d3 933f
00000610: a817 e56d a6fd 60bf b0fc 9833 09c6 6e3f
00000620: d036 fbff 39b6 b43f 67ad f96d 8897 b63f
00000630: 8004 07fa 0cbb ce3f c87c c01d d6e6 953f
00000640: 2df8 68fe c4d5 733f c4c9 a457 4901 b6bf
00000650: 9857 edbb d03b 50bf b0b7 cf10 246a a9bf
00000660: 7f7b 742a a7e3 773f 4438 9f9c cd73 733f
00000670: 533f d366 bfcf 80bf f915 6ff5 0216 88bf
00000680: 5953 25c9 1480 bc3f e211 736a 4c8e 9f3f
00000690: 45a7 3ee0 959b a03f 084b 693d 4118 a03f
000006a0: 1db3 a40b abd6 913f 95d9 ffc0 410e 55bf
000006b0: 707d b1cc 88ac be3f 4f67 3725 ba26 a73f
000006c0: 316f 6905 30d0 a1bf 441f a816 25f8 b03f
000006d0: eb7c 82ce aa1e b0bf fdc3 c398 fe09 9c3f
000006e0: ac7e 2d44 58cb 843f ab01 5147 ef60 c43f
000006f0: 2715 bdb7 33e8 52bf c37a c8fd e17f a73f
00000700: 5b99 2c13 defa 8e3f 4e00 c28b a293 9f3f
00000710: 7322 4483 6141 883f 7eb9 aefe 0848 863f
00000720: 1fd6 5cf2 8253 b13f ea38 077f 773e b33f
00000730: 5a10 aff7 6219 a13f c585 c828 71af 983f
00000740: 9be8 7d93 04db a63f 026e 670b c68d 81bf
00000750: 4eea 0c7e b07e 8fbf 0013 527c 8ada a3bf
00000760: 670f f1ef ba8e c53f 0ece 16de d686 a33f
00000770: d6c3 ab06 a4ad 943f 9568 3515 069a 6cbf
00000780: d1ac 02af 258b b0bf a700 e559 7d4d a6bf
00000790: 1333 7fad a61d a2bf ca76 7df5 d36c c03f
000007a0: 8264 72a6 c2b6 763f be23 9b01 0fc6 5bbf
000007b0: d105 a92a b65b 83bf ade7 07af b2b0 adbf
000007c0: 872b 2d94 cacc b0bf 2bda f0f9 313d a03f
000007d0: 95a7 7def 00b4 7ebf 67c2 d9fd 8a04 c23f
000007e0: ed18 c94f 7bd0 d23f 54b6 2777 a670 c23f
000007f0: 6c1a 255d c6f9 8ebf 2501 3fca 1d3e 7dbf
-0.003756953275404415 -0.041612120279316954 -0.006411435410514437 -0.014482938261184299 -0.05754514943212825 0.050216877458824936 0.05203359811154109 -0.0007572790301294176
-0.004245275954850859 0.11940293157002599 -0.09246966239394759 0.1477323176152455 0.008371775500361948 -0.018126096983123875 0.007461104476011988 0.002019443003000532
-0.03629795073737272 -0.024825563824910055 -0.1658548599779044 -0.037337005650393565 -0.013122184606856496 -0.00828289880165424 0.11238773360293636 -0.07731472239401521
0.009352370701563278 0.011812133308542173 0.14572064206646881 -0.01330499002388086 -0.03029012421426465 0.03382245070011307 -0.011855091928254919 0.015286157299313825
-0.013433408258199653 0.005097450360791092 -0.0460885500248871 -0.03732874987018561 -0.03671053515363482 -0.0007685558450033379 -0.06318488622574694 0.11820097334339276
-0.060942295829034134 -0.032273814890760116 -0.06081605897985684 0.03409972814954793 0.012791695982766943 -0.029705535208432488 -0.061617002120024036 0.011252410471928757
0.00922353166534786 0.12739973911435612 0.011160566298930214 0.20091777759691182 -0.014258409771535252 0.009288498866566615 0.011104258166788698 -0.025767712259865277
0.153279199526254 -0.016527419411651943 -0.013988793092742572 0.015084229691470831 0.012348280586619716 -0.0018112612191459826 0.014118283705593388 -0.01586157345639689
-0.0010935034789648199 0.03939276945826985 0.0081538558182634 0.0030206502267569125 0.12528290815772467 0.15833683725540634 0.35527660935537964 -0.011041131737911136
-0.0035414907875471963 -0.1257624919034469 -0.023627999158655995 -0.09182188115953058 -0.004621113121243446 0.0015976297766684886 0.006704755242842539 -0.030651689047426576
0.14080822604653254 0.056903636439999156 0.0377545770433888 0.09172707596984382 0.0081283833397138 -0.0013821222191109765 0.24951343346812208 0.04251472191744471
-0.02442926944698318 0.10991038264784685 -0.08928349854129178 0.014004217361305365 0.019262651724305607 0.2798831630643951 0.00040848475547399757 0.06490262911270894
0.00889291180216302 0.004825078487422539 0.03060563864882731 0.0011474189047959362 0.1254807430808715 0.09529728066063045 0.02825095679906145 0.00848242536900138
0.07440095306554499 -0.009033582544526825 -0.024867967516806526 -0.03917425494685978 0.25405164692928955 0.06491783741524929 0.05340418905796096 -0.005992596147240161
-0.13701106910727048 -0.04594162007427225 -0.02997152616406983 0.18651368967489423 0.013639526363891987 0.015513011067824416 -0.012310521201092625 -0.1028287586397174
-0.10844741824799965 0.02600260880900473 -0.005307862392372603 0.16776448606096445 0.42952066365385255 0.19039302405482028 -0.03333991951249491 -0.002940929048024362
-0.013554986394321292 -0.007111981292779748 0.01601516486840754 -0.0047641514011147156 0.007890022856298903 0.025387433587172117 0.05211581441352958 -0.011201427397917369
-0.00394351339157696 -0.025404984307653703 -0.005412584902304635 -0.017691345540478055 0.0029306608328987464 0.006254449664717367 -0.007809131601315609 -0.008082803439221272
0.008110921045980782 0.0011780022053254622 0.017337356057212094 0.01622809110603629 -0.0002654108587580187 -0.005759745060889275 0.02076433617163812 0.006505967387973775
-0.005738517444043388 0.016623855996402113 -0.013421654907338026 0.013745286485478271 0.008067120375528735 0.030628399358045295 0.012757246859258607 -0.008284839626619356
-0.005588399510606149 -0.0006863311366230574 -0.007562025052014397 0.015434038310810886 0.026151714363024124 0.005179203363640838 0.01672901085284244 0.012296750022307672
0.0006943430233034433 -0.015670846373381123 -0.006143480549887074 -0.00541832004029093 0.024716022774155764 0.013407561687450662 -0.008689079015329004 0.0002802845856913273
-0.036149524631465146 0.007514498402968339 -0.02171183859902836 0.0343948612362609 0.002503443556394474 -0.00454786331028578 -0.0026311760529943076 -0.014934224989482986
-0.015618708625032892 0.009887751806317544 -0.007008390612581985 -0.0012490330421180173 0.04231490276086892 0.01130074466787534 -0.005680371701662222 -0.0015941593108540581
-0.005965419534944876 0.01936103167290532 -0.0020740747997107407 0.003756540271552554 0.08090555667441923 0.08824970898574734 0.24008333404893634 0.021388383451377974
0.0048425383634463194 -0.08595713033427105 -0.0009908235949373841 -0.0496379156610226 0.00583234118610576 0.004749110385047276 -0.008208747220492951 -0.011760733714150528
0.1113293639258023 0.030816263196145395 0.03243702280390307 0.031435049768921586 0.017420456491140535 -0.001285137379452549 0.11982016560931696 0.045217339556713136
-0.034791470203997206 0.06628639033453704 -0.06296794454327752 0.02738187606241026 0.0101534744077861 0.15920821172950403 -0.0011539940887400153 0.04589754317224994
0.015126929245138745 0.03083662012113591 0.011843454187798507 0.010879583618444096 0.06768053452545829 0.07517191745066368 0.03339680932506957 0.024106758226599263
0.04463972378194222 -0.008571192954085486 -0.015378359648470365 -0.03877671020112494 0.16841828075314 0.03813811741875038 0.020193636805689717 -0.003491413002547248
-0.06462321779933979 -0.04355994913430666 -0.03538246982461692 0.12832116591282833 0.005545387604024234 -0.001695170073093374 -0.009452269722831115 -0.0579887236271611
-0.06562486760701179 0.03171688247714529 -0.007495883612003503 0.1407636394028657 0.29397471229130084 0.14406281297799473 -0.015124845235402883 -0.0071393169091041086

b1 f8 [1, 64]
00000000: 9a8a 7e4d 3c14 1dbf 32b5 b658 2546 67bf
00000010: 9a01 bf3b 96c8 28bf 8599 83bb f77d c03e
00000020: e347 a428 0f57 a6bf e2d7 a11a e9f8 a8bf
00000030: 1084 633c 7451 bebf 8f6d 67c5 1e4f 50bf
00000040: 6ea5 29d7 7513 f3be f0e4 c233 7ea5 9e3f
00000050: e127 8a65 0faf aa3f c100 ec50 1775 a23f
00000060: 7277 4207 81a5 4abf 4192 203a a0f6 6cbf
00000070: 01ab 0bde 8c1c bbbe 1ddd 50b3 a52d 8d3f
00000080: 38d9 cf1f efde a4bf d80f 4ae7 6e74 843f
00000090: 63ca a80b f3a1 a63f c4a7 ce86 dd25 903f
000000a0: 8eff 0e39 131f 6dbf 84fc 35eb 2e5f c7be
000000b0: 0d92 052c f191 aebf 2f7a 01ea 5681 84bf
000000c0: bab0 9b32 6de2 423f 85bf 40ad 3117 a5bf
000000d0: 73de 9db7 ebde a33f 7df2 7767 a17b 5bbf
000000e0: d582 34bb 340e 78bf 728e 0a40 8a36 b7bf
000000f0: 587c c21b ef87 60bf be2e 50f4 f835 99bf
00000100: 3132 979c 7beb 1abf 78c3 ea49 d6b1 ba3e
00000110: 0794 7742 b699 a13f 116b 39d2 04c6 19bf
00000120: 4386 5177 dbc1 9cbf 7d86 c348 f94f 95bf
00000130: 5e60 d10d e514 6dbf 3a22 5609 e3e6 6c3f
00000140: 51ac d15b 703a 66bf bd83 7103 f8b7 a23f
00000150: 8251 baa1 9568 b33f 00b2 d0f9 3be6 883f
00000160: dae4 7d2d d998 b3bf 5373 58da a059 91bf
00000170: 67d2 2b01 9b4a a53f a73d 9415 048e 563f
00000180: 4d4d 8d2c 6f75 b03f 98fc 6d1a 3298 953f
00000190: 728f 2941 6557 843f 0a00 3fa5 4716 98bf
000001a0: 222d b715 1f33 4abf 9d51 08de f037 a63e
000001b0: 2c5f dfbf e440 14bf f981 dcdf 293f ae3f
000001c0: 21fb 3103 d1fe 943f 6790 31e2 facf 89bf
000001d0: 51fc 7ef4 0e22 c33e 6e33 d0e6 0dab afbf
000001e0: dac4 c667 4618 bebf 86f8 98f0 e7a6 acbf
000001f0: 6875 cb6e 4027 983f 3c22 8f73 741b 6b3f
-0.00011092775400682112 -0.002841065351921878 -0.00018908342269520207 1.966006916476184e-06 -0.0436329590903737 -0.04877403688526251 -0.11843039011320422 -0.0009954262255778867
-1.8192307332053617e-05 0.029928180608043087 0.052116852898578044 0.03604958403411863 -0.0008131866475371409 -0.0035355691370731195 -1.615972785080466e-06 0.014247221503053848
-0.040763352044381695 0.00998770373667661 0.044204325841197066 0.01576944480226651 -0.0035548568198179925 -2.7861368267486194e-06 -0.05970719969153402 -0.010012320534028422
0.0005763085548245097 -0.04119258155731046 0.038810125507492986 -0.001677425023330375 -0.0058729228797182636 -0.09067596496111621 -0.00201794339052656 -0.02461995116395487
-0.000102691096933679 1.5911266825591679e-06 0.034375854123744935 -9.831814218711996e-05 -0.028083256871815242 -0.020812888208530545 -0.0035500024519415216 0.0035280641847672796
-0.0027134127145039062 0.03655982057603733 0.07581458280976075 0.012157887040381787 -0.0765510307372951 -0.01694346745181303 0.0415848196916258 0.0013766326795269042
0.06429190480894427 0.021088393080841955 0.00993231873616882 -0.02352249094087714 -0.0007995511800173198 6.621634690029327e-07 -7.726093460236051e-05 0.05907564981157871
0.020503297634145604 -0.012603721645241884 2.2808361883337905e-06 -0.06185191576523762 -0.11755790742496988 -0.05596089183789936 0.023587233316779616 0.003308989948412026

W2 f8 [64, 10]
00000000: 1b25 2072 ea65 763f 7a41 c5f9 c347 60bf
00000010: 6521 ce89 2bff 74bf 0dd0 b900 c29f 813f
00000020: b19c 1e43 9999 813f a83c 3290 9813 5ebf
00000030: 28e2 cea5 4474 4d3f b645 e743 76df 873f
00000040: 2b83 93e7 c870 8dbf 123b e97e 9b62 763f
00000050: da82 a662 c1f9 a1bf 5733 d52a 36b6 a1bf
00000060: c679 484e eff8 b4bf 6556 bede e14e 80bf
00000070: 0482 1a48 0bc3 b33f ada9 db04 c6a1 bf3f
00000080: 1b21 9f97 db64 a03f 73ce 6cb7 a1c4 77bf
00000090: 338e c3bf c0ee b4bf 1665 8be7 fff0 8cbf
000000a0: 327d c34b f7ca 93bf 6d6c 6398 54db 5abf
000000b0: 87d1 e0eb 1667 71bf b9d2 aef4 1684 6d3f
000000c0: a080 3b43 0ab2 7c3f 771a 522e e144 8ebf
000000d0: 3701 f820 4bc3 4f3f 16c6 5fa6 4a1c 84bf
000000e0: 3097 e8d7 1eca 893f 1615 1c1e abe4 87bf
000000f0: ad41 f9bd 2b78 803f 8b32 cf26 68aa 763f
00000100: 3838 9de1 786f 71bf 1aed 72e4 0167 5b3f
00000110: 3ecf d247 5d06 79bf a5c9 a17d ce28 82bf
00000120: 49c0 27f5 5235 6e3f ba44 0445 c904 863f
00000130: 6dee 4eaa fce2 5cbf 63ba 619b 2b7c 713f
00000140: 9fea 8f36 b5e5 e03f 325e 3fcc 3a00 9abf
00000150: e3d5 5d4c 2cec d8bf c609 95a2 25dd a2bf
00000160: c5e5 4873 6ef6 b83f c7d4 4228 bde4 c2bf
00000170: cbe0 e0b8 6668 bb3f 418f ef00 8b30 a2bf
00000180: 7bca cb93 4a6c 93bf e185 cf2c 8b7d a0bf
00000190: fc09 2a8e 5e68 ce3f 85f1 7ada 4323 9a3f
000001a0: 2522 8572 c6e5 cabf 9ae7 7772 0403 b33f
000001b0: 6382 c324 88ec cebf 4a1b 85e5 6d82 b6bf
000001c0: 91f7 8c0e 2227 c23f 3d81 114a c69a 99bf
000001d0: da95 d235 c54e bb3f 7859 8800 25e8 a7bf
000001e0: 0868 d1e2 fb97 e13f 30da fc6f 1a8a a7bf
000001f0: 88bd c7a2 1266 e4bf dfcd aae3 a5c4 b13f
00000200: 6c5f b24f 1379 b8bf a17d 8a45 d24d babf
00000210: c3d1 9fb4 5e30 d83f 10d5 5648 cf2f a9bf
00000220: 07b4 da9c 6cc2 93bf b5b1 7a43 1322 b2bf
00000230: 6431 ac7d b092 8abf 7b62 ae3d af77 92bf
00000240: d371 e491 10ec 853f d177 e0a8 2feb 76bf
00000250: 27ef 5458 b016 703f 791a 545d 02aa 6a3f
00000260: 310f 27e9 6c04 56bf 6e81 4e91 5245 763f
00000270: 2a4f 30a1 818d 703f e56c 711c f30a 163f
00000280: f09d c252 d9b4 8cbf 378f c246 5217 4ebf
00000290: 8630 d765 e2b6 81bf 4b8c ef2a 3881 963f
000002a0: e46d 32ce 23cd 773f 8a84 0540 ef79 5f3f
000002b0: 48bb 3c0c 978f 693f 52a5 78b9 ae20 813f
000002c0: 4656 86a2 345e 7c3f 46db 9cb8 d91b 623f
000002d0: 120d 7644 5742 a03f d1c0 6b50 a4b2 c8bf
000002e0: fbd9 146e 31f7 dd3f 9f0c 7ebe 98a4 86bf
000002f0: a370 1394 4cd2 99bf 696c 44d7 bc27 d2bf
00000300: d4b6 23d4 6c2f a3bf 2e7d 1457 d3a4 a4bf
00000310: 5d2b d1b8 9371 c83f 690d bf60 d13a bdbf
00000320: f4b0 4ce9 73cf c9bf fc0e 006a a6d6 b13f
00000330: 1772 17ce 87cb 593f f694 5ce2 afb8 8ebf
00000340: f77b f6e2 cb5d ce3f 0968 1ea6 1dd2 d43f
00000350: 458d ee86 c9b8 a83f 5575 7a57 301f a3bf
00000360: c7ea a507 89c8 d6bf 9b6e 8909 e60e 9abf
00000370: 0539 341a f108 b33f e1ae 2377 3c5b c2bf
00000380: edfe dcc7 b5f1 dd3f adbc c03c 961b a03f
00000390: 91a9 a233 ccc6 b5bf 84f3 956c ba5b dabf
000003a0: 4dda 5e3a 4b38 a9bf a21c 7c43 0161 98bf
000003b0: 4c47 6fdd 4b10 d23f 455a 4640 4574 b9bf
000003c0: bb6b 8ea2 f020 79bf b814 821b a22c 6dbf
000003d0: c8d9 fcf0 f914 8e3f edfd 1cbc 9b2d 84bf
000003e0: a0e9 1c49 a9d3 7fbf 7c90 1cfa f7e8 8c3f
000003f0: 9687 9ad5 5976 7e3f 6503 6113 f0f8 8c3f
00000400: b1c0 e423 2501 7fbf d99f 7b2e 1374 4e3f
00000410: f7fd d189 f815 91bf 7670 09e7 15ad 59bf
00000420: fa61 1811 2223 90bf 3418 6606 fd97 823f
00000430: 898d 86bf d1eb 8b3f c89b 501a ad21 71bf
00000440: 5d1b c20c ead9 6c3f 5297 130b 6c1f 63bf
00000450: 80f8 780c b839 52bf 18a8 890d 7bf9 323f
00000460: 4a5b c2de 7d8e 64bf ce38 f4c3 e58f 85bf
00000470: 171b f0b6 8499 833f 4293 8a93 792e 4ebf
00000480: 38f1 017b 4b27 81bf 0fd6 430c a935 693f
00000490: 0c46 c769 0e17 653f 42a4 2f9c 2676 2a3f
000004a0: a750 b5cd b583 7bbf fabb fafb 9917 873f
000004b0: 1cc2 b3e3 ffe5 a0bf 8d0c d596 7543 a83f
000004c0: c942 471f fbe0 a33f 0f68 816c 9886 52bf
000004d0: 873c 4a7c bf2e 9e3f e4a9 514c 4201 923f
000004e0: a50a 7be2 c3b6 97bf 2022 361e 3d1a 97bf
000004f0: 6cb2 15a8 d81c a7bf f7fe d1b2 2e62 7bbf
00000500: e264 ced3 cb4e de3f 2c8d 0fdb b3fc a0bf
00000510: 867d 6337 1ebe d7bf f3c1 1d70 f865 a6bf
00000520: c983 1671 94dd a23f 5ba3 7493 5c7e b7bf
00000530: 82e8 80f8 58d8 b83f 8203 8ef2 2bb0 90bf
00000540: e7b1 65bb b9e4 8ebf 1ca8 198c c6ea 9abf
00000550: 6de9 c00c 5d57 793f 30d3 4b85 ba8a bc3f
00000560: 4306 812f 555a c1bf 6654 8c83 f83e a33f
00000570: 8148 d6bc 83fb a83f 6ed3 fb3c 2514 ad3f
00000580: db95 c767 45b7 a53f b109 d5da 7ae4 94bf
00000590: 3b60 5b16 e494 c7bf 039c 3f45 0340 95bf
000005a0: cf48 7048 1f05 cdbf ab58 26fb 9d98 bd3f
000005b0: 68f5 fe6e 9f9c c6bf 7bf1 341e 554e 923f
000005c0: 29fe 1683 d6db d43f 7a50 6a08 eace df3f
000005d0: ff0e 98aa 6131 bf3f 1995 48ff 8f67 abbf
000005e0: c457 5121 bede e1bf 0d8e 435e f56d b0bf
000005f0: 1113 e101 50a7 7a3f cb63 188e 685a d03f
00000600: 6b44 5d20 cb13 c9bf 1133 8db6 9590 b73f
00000610: a4b1 689c 7e0c 913f 5c28 e14f 71b3 a43f
00000620: ef48 f862 cbb8 b13f f5a6 a161 7b98 8fbf
00000630: 40ee 5beb 234c cdbf ad8a 93d8 9551 9cbf
00000640: 2692 f247 4029 b53f adfc 9f92 b27b 673f
00000650: 76ac e775 2439 afbf 69fb f21d ff04 5abf
00000660: c291 a3ac 8377 71bf b65c f90b 463e 8cbf
00000670: 8dc6 7b9a 25c0 92bf aa1c 34af ef46 7b3f
00000680: 214c d041 3008 8c3f 4cf7 4dfa b393 673f
00000690: 7a51 7be0 5e98 75bf ae90 3135 29a3 79bf
000006a0: e4d0 74af 5a1e 79bf f309 fed7 4345 47bf
000006b0: cab1 5f62 77d4 91bf a1f9 7581 ad37 94bf
000006c0: 4e81 3ea2 4c19 90bf 9e0d af57 36a2 7cbf
000006d0: 6081 f537 8736 8d3f 0855 5173 83b2 7cbf
000006e0: 6023 1c02 cfb3 dd3f 2056 51e8 c377 d3bf
000006f0: 4a12 a795 5e67 803f 0427 e92c 7e6f bf3f
00000700: 7505 06c2 7d2f b4bf 37b6 b2b5 458c e0bf
00000710: f1e3 950a b53b d43f 21af 8589 39ea b4bf
00000720: 2df3 8ef0 f76f ce3f 552a 60b5 e838 c6bf
00000730: 8225 de14 e16f b7bf 753f 5334 24f9 c6bf
00000740: fc46 8303 cd4f bdbf a2be eae7 8338 a0bf
00000750: 74b2 12ef f5dd c53f 002c b934 099a d13f
00000760: 6046 2efa 093a b13f fe76 b42b 2a53 57bf
00000770: 81b3 a0b6 eeaa b1bf 7665 f5d3 029b 86bf
00000780: bf70 4fc0 3063 8f3f b627 30e7 a1d2 d2bf
00000790: 3cb7 91b4 82b0 d03f 288d cac9 beb6 a2bf
000007a0: 768b e70c e676 bf3f d64d 8425 784c 723f
000007b0: b351 3716 d98c b03f 99b7 0e71 7e54 a0bf
000007c0: 72e4 4951 2b6b 803f 7446 3500 f8a8 b4bf
000007d0: 055a bf65 aedf d03f 21a2 8114 feea 9bbf
000007e0: 2d6b 6f11 e33d c9bf 3d75 f60d 5ce9 493f
000007f0: efec caeb 32d4 a4bf b41f 8912 a861 94bf
0.005468288234632436 -0.001987345471356314 -0.005126161643495973 0.008605495116377449 0.008593747483088473 -0.0018357267261171293 0.0008988700097836743 0.011656688639876883
-0.014375276152749436 0.005465133099803026 -0.035108607570924114 -0.034593289116492336 -0.08192344342430777 -0.00796295605668291 0.07719488630619514 0.12356221788983275
0.03201948381280514 -0.005802756981939094 -0.08176808053718147 -0.014131545308759413 -0.01932894134449476 -0.001639206516805182 -0.004248704468455939 0.003603024325878526
0.00700572975958394 -0.014779814935775832 0.000969325717903791 -0.009819586946806996 0.012592545475012068 -0.011666619163870833 0.008041707739864313 0.005533606378730692
-0.004256698792074735 0.0016725080948124028 -0.006109585168065311 -0.008866894921287402 0.0036875362650264126 0.010751316469880801 -0.0017631022867438354 0.004268808688819267
0.5280405107181031 -0.025391501156120273 -0.3894148584143677 -0.03684346780439145 0.09751024546212424 -0.14760555711624176 0.10706178678163096 -0.03552660356925098
-0.018967786093478694 -0.03220782205586282 0.23756009999858907 0.025525150499321043 -0.210137182157511 0.07426479143751266 -0.24159337802031464 -0.08792769292368266
0.14181924543839533 -0.02500448062016968 0.10667069019344613 -0.04669299727918291 0.5498027257956446 -0.045975519342779214 -0.6374600581456642 0.06940686043053955
-0.09559746452066314 -0.10274995992448634 0.3779522670659185 -0.04919288404509292 -0.019296357225062646 -0.07083244702761855 -0.01297510036013056 -0.018034685268136102
0.010704163982659864 -0.005595384760480785 0.0039278877714499566 0.0032548948462392505 -0.0013438285428585934 0.005437204866126739 0.004041200986666197 8.408650238449533e-05
-0.014016816938535265 -0.0009183074703469134 -0.008649605496337875 0.021977307911481152 0.005810870995584836 0.0019211613108256775 0.003120226874578167 0.008363118205198337
0.006925778965884149 0.0022105457655031994 0.03175614081103552 -0.19295171667864122 0.46821246862546645 -0.011056130708089916 -0.02521629003318594 -0.2836753942698978
-0.037471199890075774 -0.04032001913059911 0.19096609615584273 -0.11417873966188598 -0.2016434563787538 0.06968154991050918 0.0015744043561120075 -0.015000700088032986
0.23723743993920696 0.3253244516614591 0.048284814568683866 -0.03734732692576396 -0.3559897017181978 -0.025447458583910714 0.0743551911329839 -0.14340930764534845
0.4678778125562378 0.03146047107326786 -0.08506466160421257 -0.41184864620282036 -0.049257613063151774 -0.023807544464059867 0.28224465012055044 -0.09943039721688603
-0.006134929638302584 -0.003561321846123091 0.014688446680889991 -0.009852616003285209 -0.007770215293755461 0.01411622745542495 0.007437086978514437 0.014146686164282671
-0.007569451407377568 0.0009293645534542663 -0.01668537465275041 -0.0015671457187158822 -0.01575902203885169 0.009078957326675498 0.013633383424184202 -0.0041825067355949
0.003521878365123339 -0.00233431913567276 -0.001112394080237361 0.00028952841015572736 -0.0025093515778950347 -0.010528368990460637 0.009570156891653121 -0.0009210675844611787
-0.008375730220216412 0.003077345058154497 0.0025744706638100075 0.00020188542666169275 -0.006717405481442429 0.01127548504095265 -0.03300475744788775 0.047389673864494865
0.038825843399199984 -0.0011307228578716388 0.02947520443063614 0.01758292761625481 -0.023158131311684333 -0.02256103035827739 -0.045141954916151444 -0.0066854309235393405
0.4735593384189781 -0.03317796753960986 -0.37097888382955835 -0.04374672287565664 0.036846770100289535 -0.0917718753813807 0.09705120150548122 -0.016297041587225454
-0.015084696799669351 -0.026286222744978813 0.006186831928113851 0.11149183038999122 -0.13556923694163645 0.03758980375111136 0.04879390411510177 0.056794322675989814
0.04241387264100257 -0.02040283165593743 -0.1842312916912777 -0.020752001859275292 -0.2267188171104579 0.1156100023420971 -0.1766547481510472 0.017876939743687963
0.3259178428815824 0.49700403997235976 0.1218472520341116 -0.053524494087733916 -0.5584402704941955 -0.06417783309330378 0.006507217911409639 0.2555180919312618
-0.19591654854096716 0.09204993922066886 0.016649225517697666 0.04043153858272383 0.06922598997360628 -0.0154275550050502 -0.2288861178602577 -0.027654973357935365
0.08266069180042077 0.0028666007756324636 -0.06098283709783285 -0.0015881053330273015 -0.0042643683939087036 -0.01379065250436749 -0.018311107210087264 0.006659446971077157
0.013687493332360802 0.0028780474844429024 -0.0052722650650206485 -0.006259118049545416 -0.006132463683844434 -0.00071016133004803 -0.017412057284603745 -0.019743643786108604
-0.01572150936374444 -0.006990635180901176 0.014264160533173864 -0.00700618121944286 0.4640996475796353 -0.3041848915794123 0.00800966161922036 0.1227949962277784
-0.07884965884115565 -0.5171230839529873 0.3161442378400912 -0.08169898612476036 0.23779200788512736 -0.17361172538979255 -0.09155089148966591 -0.17947819285336278
-0.11449891410600438 -0.03168117719667164 0.1708362023686224 0.27502660893213715 0.06729185445717567 -0.0014236366103612115 -0.06901447256741557 -0.01103784760805369
0.015325909489483867 -0.2941059835144374 0.2607733500834575 -0.03655048573753056 0.1229079991822298 0.004467458078824168 0.06464916984925288 -0.031894637394869814
0.008016909044487461 -0.08070325856285782 0.2636524194362269 -0.02726361274872791 -0.19720114089326427 0.0007907580838268157 -0.04068144920662486 -0.01990378010876244

b2 f8 [1, 10]
00000000: 8cd8 b2e2 e73e dcbf 35ef a0bb 24b1 dc3f
00000010: d1a5 457f 63be e23f 7e78 39b3 95e1 c4bf
00000020: 060a 2ed9 1c41 d83f 8de3 1691 596d c0bf
00000030: 9aa4 afaf 768a 8d3f 6b8d 8be1 987b cdbf
00000040: 49ab 0d36 65ed ccbf d33e 6070 fb80 cebf
-0.44133946550881187 0.44831198046789505 0.5857408033163499 -0.16313430072017704 0.378974163140953 -0.1283370932049163 0.014424254642977186 -0.23033438694902073
-0.22599473132444306 -0.2383112238608108
