data/weights/complex_mlp_weights.npz (npz, 824227 bytes, 6 tensors)

W0 f8 [768, 128]
0	0xbf65ed52bbe9e1d4	-0.0026766410731477817
1	0x3f9269a114bfec97	0.01798106850763456
2	0xbf99ce42aca07f0f	-0.02520088366156786
3	0xbf6fa942e865b3b3	-0.003864889792728887
4	0xbf70c64ca105e3b9	-0.004095362979904254
5	0x3f98475d721dc505	0.023709735956292572
6	0x3f9e03be0a046fa0	0.029311150895508953
7	0x3f6a769acbd62e45	0.0032303832401277288
8	0x3f708013061132f3	0.004028391181304813
9	0x3f82ef206a3b74e7	0.009245160333586756
10	0x3f96ccaf2b5b9388	0.02226518346914788
11	0xbf7cdfaabeffac12	-0.007049242951306505
12	0xbf98a800af357366	-0.02407837933911896
13	0xbfa37562f5c3ff83	-0.038004963398633705
14	0x3f8e83b64eb549f9	0.014899658467276021
15	0xbf9718d2bd32e905	-0.022555630491049267
16	0xbf4d5d9eb7050c3b	-0.0008961701369475447
17	0xbf8748fab61df057	-0.011369665797012525
18	0x3f9ae2b5ea515f79	0.026255457331302055
19	0x3fa2ef1e4ad6b825	0.036980578075017236
20	0xbf724ac6b918a866	-0.004465843450399109
21	0x3f6ae7fef1663cef	0.003284452376824391
22	0xbf8b4687dac73316	-0.013318120349958867
23	0xbf8042a3a241d601	-0.007939604176708139
24	0xbf91b3d2de394ef8	-0.017287535489528744
25	0x3f6ed691aed49ddc	0.0037644238824616604
26	0xbf827fa948924001	-0.009032557036590562
27	0x3f945389a0dc96de	0.019849920695512384
28	0x3f9b98dd7737b994	0.026950321580380868
29	0x3f7d702fea88f643	0.007187068150015077
30	0xbf9dd72f364306c4	-0.02914117592513922
31	0x3f7cda5fe3962cb5	0.007044195715376113
32	0x3f6a3e860acd2fe3	0.0032036417018499338
33	0xbf8ca9d07abfed14	-0.013995770212196258
34	0x3f8029b31fe27d0c	0.007892035875839663
35	0x3f885327b4a708ba	0.011877355766845777
36	0xbf7b5d6d3b64c425	-0.006680895507359207
37	0xbf920eaa34c7a23c	-0.017634067031311526
38	0xbf8e3de75e874afc	-0.014766509601860538
39	0xbf82915357675e42	-0.00906624899373221
40	0xbf6c71ec9e90c1f3	-0.0034722920868477335
41	0xbf876a880fb5b94d	-0.011433661441256371
42	0x3f8e51855b6fcfe8	0.014803926327637343
43	0x3f4fe721667aa2e6	0.0009735978209920143
44	0x3f672bbf1100fc45	0.0028284770742455245
45	0xbf7640ccbdd5a83d	-0.005432891627927869
46	0xbf909e00f5ed0eee	-0.016227736482746495
47	0x3f746438053805b3	0.004978388623841412
48	0xbf9c4ea8a9f259fe	-0.02764380967399837
49	0xbf86a71f9be6efd3	-0.011060950227026389
50	0xbf97511f677c6dc9	-0.022770395938193553
51	0x3f5029e8001b4ea4	0.0009865537289685334
52	0xbf6471bdc161cbe7	-0.002495642295849521
53	0xbf656ac3305b700c	-0.002614384868918412
54	0xbf8147aa3936c636	-0.008437471266776613
55	0x3f7d033993fbec7d	0.007083153642947979
56	0x3f941f1b5db334e6	0.019649913400645945
57	0x3f6e02b8d3efd562	0.0036634073180674
58	0x3f941970fdccf270	0.019628301134832105
59	0xbf70c5ec070edc11	-0.004095003111550547
60	0xbf7144e21ce99a6c	-0.004216082814855509
61	0x3f7cd225c4f4118f	0.007036349808235433
62	0x3f8185d7f1d9c4d5	0.008556067531772996
63	0x3f85aa55d58f46c6	0.010578795032333398
64	0xbf7ec5c4ffaf05eb	-0.007512826467917825
65	0xbf7404baf946b66e	-0.004887323728707578
66	0x3fa3cda811b4e0e2	0.03867840973038185
67	0xbf96bbd149d83914	-0.022200842029684045
68	0x3f838c7aeb42cf0f	0.009545288376422016
69	0xbf960e435294add1	-0.021538783946352617
70	0x3f9629dafc8d1d18	0.021644040741446963
71	0x3fa24de0511961a7	0.03575039854030431
72	0x3f74b0d2326885ca	0.005051442224187361
73	0xbf739ebe8bb0c73a	-0.004790062254913791
74	0xbf8eb678bb0703f6	-0.014996474464057368
75	0x3f92576dd1149019	0.017911640058756093
76	0xbf99fd75a275e187	-0.0253809338005069
77	0x3fa2ab57f0db80f4	0.036463497306387455
78	0x3f67778b6d9178df	0.002864620514215862
79	0x3f96172d6e1195fe	0.02157278999620437
80	0xbf9ebf912c7a2e2e	-0.030027645435025167
81	0x3f407845d631a0bb	0.0005026188849912775
82	0x3f7e5f430f3371b1	0.007415067625711578
83	0xbf94be46421fcbc7	-0.020257089410687514
84	0xbfa5bfda6a8aac10	-0.04247934866483416
85	0xbf77e2bdd564f5e0	-0.0058314719556711025
86	0x3f870ad6ab5b1e7a	0.011251141647689911
87	0x3f40e480ac1fbbf9	0.0005155208857540165
88	0x3f79019b4396fad3	0.006105047702873195
89	0xbf86fcba1da30337	-0.011224226026003243
90	0xbf9194c966f21564	-0.017169138820937305
91	0xbf84da7c9c41987f	-0.010182355421602061
92	0xbf9d57e230394fb2	-0.02865556163153799
93	0xbf54757e1cb35642	-0.0012487155498112222
94	0xbfa7c90c690cd932	-0.04645575315810148
95	0xbf83ea595d219377	-0.009724329142224637
96	0xbfa19d0eefa14ac0	-0.0344013850705287
97	0x3f80698d2e647085	0.008013823488504332
98	0xbf7ecf43d4487b9e	-0.007521882017072294
99	0x3f8a3142b5efa6dd	0.012789269616365779
100	0x3f766cddc6b112c4	0.005474916756672502
101	0xbf4bc00998d77aec	-0.0008468672619378038
102	0x3f78ab73246f7026	0.0060228822466932615
103	0xbf7cd7c53705aef9	-0.007041712160894547
104	0xbf73565268721d08	-0.004720994859901191
105	0xbf8f7078da7e37e0	-0.015351242225531025
106	0x3f6e21607175fb83	0.003678024640691503
107	0xbf9032d1c0273bad	-0.015818860390762236
108	0x3f6c734d60ba0aea	0.0034729491506494308
109	0x3f98634d14ec83bb	0.023816303636639207
110	0x3fa067d37bc0f41b	0.03204213033357225
111	0x3f80862ce26cb56f	0.008068419132167574
112	0x3f671878de8ef9c1	0.002819286416040984
113	0xbf784bf68e6ecc43	-0.005931819067813984
114	0xbf9cb6a6ca8f4676	-0.02804051028562645
115	0x3fa80aa93cdb6297	0.04695633762248013
116	0xbf8e4e81aeb48523	-0.014798176902845633
117	0xbf748904b0203f31	-0.005013483345478951
118	0xbf97537ab93ca136	-0.022779386096915398
119	0x3fa6c476a93c8ef9	0.04446764770389495
120	0x3fa826efd40e649c	0.04717206443383157
121	0xbf923d2c5daa9420	-0.017811482636393206
122	0x3f55ef67a01bcbd1	0.0013388168303520751
123	0x3f6b9dc79235f925	0.0033711336015464105
124	0x3f9be255ce33ef75	0.027230587683319613
125	0x3fa434eb36e2c20d	0.03946623845093109
126	0x3f9d319f4b49fce5	0.02850960633304291
127	0xbf8690d5a6a22684	-0.011018437526462373
128	0x3f824ff4bad558bf	0.00894156642122501
129	0xbfa0994ce6d3a44c	-0.032419589211550276
130	0xbf90b7f2e6d45947	-0.01632670911666281
131	0x3f954e0df32479d6	0.020805566754569536
132	0xbf65a2e221d90e1f	-0.0026411453862083124
133	0xbf9a1bae33be064f	-0.025496217640016913
134	0xbf7456c0d3662e82	-0.004965546823210711
135	0x3f87b1862c7229f4	0.01156906912935527
136	0x3f91861417f73b2c	0.01711303135180768
137	0xbf82a3492abda288	-0.009100505463451883
138	0xbf6ad216f5145c63	-0.003274006689604246
139	0xbf81aba2dd7d80f4	-0.008628151306482292
140	0x3f94ee30c2fb2155	0.02043987455434267
141	0xbf7b52db91a3b1d3	-0.006670816126853346
142	0xbf622af487944396	-0.002217748257529138
143	0x3f956855ae46cdf9	0.020905817758558574
144	0x3f88d9e2e5d4c318	0.01213433517350064
145	0x3f8b4ddf4879dc81	0.0133321231835295
146	0x3f6aa297550e1b39	0.0032513576229037636
147	0xbf8998cea5737c59	-0.0124984878770517
148	0xbf7ade1b31bd6598	-0.006559473254890057
149	0x3f3bcd905df1ce20	0.00042423986992121306
150	0xbf644825ad499193	-0.0024758087040927606
151	0x3fa2ed67d23387be	0.03696751061376301
152	0xbf8447f256908985	-0.009902852312795538
153	0xbf723cf32dbdd13f	-0.004452657620152955
154	0xbf708b21a252285c	-0.004038936026640707
155	0xbf84417af82d2b00	-0.009890518854850594
156	0xbf9ec4d586f435c4	-0.030047737466750282
157	0xbf9cd52d28b6027c	-0.0281569534395225
158	0x3f87010cc528790b	0.011232471243655803
159	0x3f61bd2027ca5824	0.002165377429558484
160	0x3f79e6d9b5f49bdb	0.006323671753569261
161	0x3f91ba5dcc750020	0.017312493900362935
162	0x3f5bd7844d363705	0.0016993324287314937
163	0xbf93477af9ce37f5	-0.01882736348812127
164	0x3f669924452d524b	0.002758570518759639
165	0x3f9339d5101a59b1	0.018775300128788867
166	0xbf84a3f4b05474d5	-0.010078345900689826
167	0x3f71dbdb13db613b	0.0043600614278250195
168	0x3fa947d988735265	0.049376295000602956
169	0xbf8480acfe3a32cc	-0.010011054523852002
170	0x3f743e9abbbe2ac5	0.004942516734341045
171	0xbf742e43a40b50d9	-0.004926933500162011
172	0x3f50c58dd9304037	0.0010236630666931154
173	0x3f945bad3940869f	0.019880968684566565
174	0xbf6f592583b0a405	-0.003826688070621478
175	0x3f855e0b0dba3f73	0.010433279377394666
176	0xbf888b9aed61a630	-0.011985025758082107
177	0x3f7f79b7b5a4a92f	0.007684438338666318
178	0xbf921be297344e89	-0.017684498289851667
179	0x3f90b467c97f1516	0.016313192056050495
180	0x3f8d44ef5e8e9e66	0.014291639397767852
181	0xbf83d7f2f64efa7d	-0.009689233915080248
182	0x3f3fc23f041dbae5	0.00048460043409807716
183	0xbf8a5028a923de1c	-0.0128482033364739
184	0x3f65fdc24626614f	0.002684478227092203
185	0x3f9864bd7a323fe3	0.023821793158788195
186	0x3f75e62b9af38869	0.0053464606600944565
187	0xbf8c4d477a1f0bb0	-0.013819273390145742
188	0x3f8f330a02c6a31e	0.0152340681168695
189	0x3f80476da143cb5e	0.007948738559638787
190	0xbfa813ad8b956a8b	-0.04702513054754317
191	0x3f8e41a0db1968d2	0.01477361363065591
192	0x3f6dc1466dda06ae	0.0036321998184697035
193	0xbf6b1aa9c941dd4d	-0.003308612454982962
194	0xbf877f65e02e7af9	-0.011473461059549704
195	0xbf88ceccfbb57966	-0.012113191062493821
196	0x3f92c871cec1b318	0.01834276031916024
197	0xbf9bd51158b002c6	-0.02717997649961281
198	0xbf8ad7c62dccb77c	-0.013106869003958847
199	0x3f9bc7b091839c3f	0.02712894333026505
200	0xbf73aaa20e7efbed	-0.004801400216762436
201	0xbf843053f8c51c26	-0.009857803372723305
202	0x3f3bd4b672993f94	0.00042466596878387134
203	0x3f660a37611bc6d7	0.0026904183986225893
204	0x3f7a773104d8359e	0.006461326103374713
205	0xbfa3ed071ed7515b	-0.038917753710537815
206	0x3f76b63749f2350b	0.00554486844261005
207	0xbf80389fab526d2c	-0.007920501151878222
208	0xbf852b78854c3764	-0.010336820190356817
209	0x3f709cb0046169f1	0.0040556789081969006
210	0xbf91282703512248	-0.01675473172898226
211	0x3f91259bee9d143c	0.016745029867952108
212	0x3fa5950166f878d9	0.042152446574833476
213	0x3f93c22f65534c59	0.01929544502202094
214	0x3f7ea34347e66852	0.007479918304307347
215	0xbf9c082b0bdb66f8	-0.027374909018226895
216	0xbf8c926a7febccb6	-0.013951141384927684
217	0xbf81d1886d1dcca9	-0.00870043356892432
218	0x3f7f3859c900614c	0.007622099612511878
219	0xbf95b2105d7cc997	-0.0211870724735462
220	0x3f91d93005c774cb	0.01743006739876733
221	0xbf8860c91a9080a7	-0.011903353808577611
222	0x3f9c61c9ffe86011	0.027716785663955138
223	0xbf91089a63135a4b	-0.01663438062390758
224	0x3fa04fe675747ba7	0.03185959037568092
225	0xbf853165dfc8b0f6	-0.010348125354618248
226	0xbf91f1a812d30f13	-0.017523409031823322
227	0xbf7c76695323853d	-0.0069488634346453445
228	0x3f4bf9358ff1c094	0.0008536826643546097
229	0xbf55502697bdcb82	-0.0013008477098679088
230	0xbfa2c30cf16d1fe2	-0.03664436766717906
231	0x3f746e86db6d76a1	0.00498821905679639
232	0x3f570591f712e5b0	0.001405136627268138
233	0xbf62a10c144898f2	-0.0022740589067949896
234	0x3f839e4326d8a8e9	0.009579205153461294
235	0x3f8c070de2dfea45	0.013685329900899332
236	0xbf9bb998eefa4ab6	-0.027075185380975163
237	0xbf9aa6491616afaf	-0.0260249538165877
238	0x3f8005fe6beff11e	0.007823932332023772
239	0x3f8df31c2e573669	0.01462385193272127
240	0xbf77c19210bbba87	-0.005799837653951762
241	0x3f8d0c90eb2090b0	0.014184124160302097
242	0x3f815cf045e7e443	0.008478047498089341
243	0xbf8e5a413a2c82d2	-0.014820584857774408
244	0xbf8003dee2d16e40	-0.007819882676066148
245	0x3f7a6ac0f79ff1e4	0.006449464586691243
246	0xbf9390e1cf7dd4e1	-0.01910736874511521
247	0xbf8f6509dbc465ba	-0.0153294344132061
248	0xbfa39e21df2bd26c	-0.03831582879312098
249	0x3f7d67c987e1d668	0.007179057340285767
250	0x3f4fbaf7f4999290	0.0009683333129940231
251	0xbf606cefb7dedaec	-0.002005069923110772
252	0x3f914f90cc09ef39	0.01690508122781795
253	0xbf9b42638b8aaad3	-0.026620440856883597
254	0xbfa0590991658026	-0.031929301260561524
255	0xbf91a2415bb84eec	-0.017220517371312846

b0 f8 [1, 128]
0	0x3f846ebcc1ad4a25	0.009976839695501625
1	0xbf9e4ae882ae8146	-0.02958262727372698
2	0xbf88e6a7192ab51f	-0.012158685164957604
3	0xbf9eef9231f333da	-0.030210766123491918
4	0xbf3cdabbed9d3778	-0.0004402836617501886
5	0xbf9929bf87b3a6b7	-0.024573319108560834
6	0x3f7a4100db844253	0.0064096482749538995
7	0xbf37fb79303470b0	-0.0003659411306260558
8	0x0000000000000000	0.0
9	0x3f5ca07d598bcaec	0.001747248088744764
10	0x3f4317d786f8c449	0.0005826761607236132
11	0x3f880058c28b3710	0.011719411313062561
12	0x3f9c96e6f525d47f	0.02791939612639682
13	0xbfb6652acaaaa445	-0.08748118827738079
14	0x3f6768699edca073	0.002857404985565687
15	0xbf99ad7aa72c1551	-0.02507583279932152
16	0x3f7e9fb0fbdb7b66	0.007476512282407954
17	0x3f933816e7bc56cc	0.018768651861214278
18	0x3f75664a92bcbb78	0.005224505712063336
19	0x3f8886d5a5cba389	0.011975926515747097
20	0xbeec28b1d38481d7	-1.3427240091846392e-05
21	0x3f83372c4c928f68	0.00938257797890403
22	0x3f773549f22b6e27	0.00566605458399353
23	0xbfaa7a0d9d59aa40	-0.051712441880984006
24	0x3f44fa8754945a5e	0.0006402169030107032
25	0x3f0c239d0667d8b1	5.3671102069262156e-05
26	0x3f731724f4d3ce50	0.004660744057435176
27	0x3f77c2f4edd5f7e9	0.005801159624182242
28	0xbfb2b0e0ee38f92e	-0.07301145378093984
29	0xbf933382cb4a4e14	-0.01875118604455224
30	0x3f924cc7f07dd52a	0.017871021321714732
31	0x3f6e49fc8f6efbce	0.003697388917742717
32	0x3f97c5518c06f270	0.023213648006036924
33	0xbf6621ecc6edda45	-0.002701723532875707
34	0xbf66531e54488b8f	-0.002725180851727633
35	0xbf631904368c1c7e	-0.002331264713919589
36	0x3f82813f80e2cee9	0.009035583611285829
37	0x3f9c495f3dead557	0.02762364211476628
38	0xbf69552fa8be2fa2	-0.0030923777430355718
39	0x3f3f6eb1d258581d	0.0004796203741944687
40	0x3fa49b4d9ad90e9f	0.04024736895783331
41	0x3f8e867cdf458dd2	0.014904952586852458
42	0xbf3b392530092ca7	-0.00041539342786185224
43	0xbf8879c5af51663e	-0.011951012051372275
44	0xbf71ff22c55fa727	-0.0043937071077182815
45	0x3f7510fc9c9ca567	0.005143152966220788
46	0x3f56185fc1acd616	0.001348584663629087
47	0xbf3ab69332bdd595	-0.00040761083322790023
48	0xbf86163d06db3756	-0.010784603854883262
49	0x3f95a56f82c4bd17	0.021138899189449747
50	0xbfa3d26649dce453	-0.03871459628721454
51	0xbee709ae2d763359	-1.0985285753739646e-05
52	0xbf5616ffac07060a	-0.0013482567593289274
53	0xbf3826dce625bd86	-0.0003685273460609307
54	0x3f77a5c512de8160	0.005773324793978268
55	0x3f43d999b50b985e	0.0006057739757039484
56	0xbf91fea5d32c05df	-0.017572966588891844
57	0x3f923ab365469607	0.01780205064428311
58	0xbfa5462cac49275a	-0.04155101397607437
59	0xbf87c113a10a5d0b	-0.011598733284059045
60	0xbf52631ba208fb03	-0.0011222619870207568
61	0x3f720973354a28de	0.004403543502698974
62	0xbfa341717072a394	-0.037608666397608875
63	0x3f9ff7e89769a084	0.031219133607379948
64	0xbf0da8d303598dfb	-5.6570949180902824e-05
65	0x3f7feeb0aba3e36d	0.007795992011090697
66	0xbf905e17a7901142	-0.01598393402311272
67	0xbf9080e3ea083d0c	-0.016116677436056867
68	0x3f98b4ff25a4fb5d	0.024127947495112923
69	0xbf7a9bfd860ba07c	-0.0064964202181060325
70	0x3f88121fe3433c9f	0.011753319857602583
71	0x3f9ef0271dfc1095	0.03021298523437162
72	0xbf423721220f56af	-0.0005558883459524012
73	0x3f400f8daf23defc	0.0004901353661627967
74	0x3f973fe5f09ce084	0.02270468979915609
75	0xbfa606210e70c68a	-0.04301551152492518
76	0xbf90065f9b3e9605	-0.01564931283032502
77	0xbf8e4d4f0df6a91d	-0.014795892346985579
78	0x3f881794a68d9c75	0.011763726551818213
79	0x3f83984af739b3e8	0.00956781928035784
80	0xbf85475a1fcdd9c9	-0.010389999480804673
81	0xbf14f1a02af814d6	-7.989444815599835e-05
82	0x3f69fc7d6d70e7bb	0.00317215440329918
83	0x3f76d5d2000aff99	0.0055750086909823965
84	0xbfb11ca1470fed53	-0.0668431089870201
85	0x3f8a6f40ee67f8c3	0.012907511973932256
86	0x3f860e8fd5b7606f	0.010769962033848139
87	0xbf221b207eff03f3	-0.00013813754730843084
88	0xbf85a71904fdaa50	-0.010572619881448336
89	0x3f620022530418f1	0.0021973295589560117
90	0x3f95ce5cb341c1ed	0.021295021477671417
91	0xbf73650bf81e0bc9	-0.00473503756973321
92	0x3f96e3633bcc7ea6	0.022351789975003776
93	0xbf883318338d9a8b	-0.011816205094601592
94	0x3fa7cd6c9cce03fc	0.04648913778419936
95	0xbf551f90878fd680	-0.0012892638608240914
96	0x3f9daafbeec3c4d7	0.0289725651245519
97	0x3efd6cbca5ac22b0	2.806163170546394e-05
98	0x3f2382b24b379019	0.0001488535541361864
99	0xbf6e2d56d5992733	-0.00368372878873382
100	0x3f8c923a97d5ab09	0.013950784453034897
101	0xbf5660273434fc0d	-0.001365698132602014
102	0xbfa53878abb03cd9	-0.04144646735960018
103	0x3f756177d41c235c	0.005219905929842419
104	0xbf187630098e5a9f	-9.331386753639669e-05
105	0xbf20725a42af7900	-0.0001254782849561889
106	0x3f5055b94068bab2	0.000997000608218873
107	0xbf8e2bf48da9340b	-0.014732275555752869
108	0xbf8bddb6ad21f117	-0.013606478842341603
109	0xbf98f10037a3367c	-0.024356845279547276
110	0x3f9f198e97ee0a32	0.03037092974001094
111	0xbf6d5603a8e045fd	-0.003581053874776029
112	0xbef349e065e43835	-1.839502362437785e-05
113	0x3f6ebea68a510877	0.003753018640538615
114	0x3f93bf8986fc1e4e	0.019285343993969577
115	0x3f7c462f3500f31e	0.006902870562097955
116	0xbfb7e16a9dbd3b78	-0.09328333235792552
117	0xbf28a55f864bc081	-0.00018803397247025083
118	0x3f79ceb024df6c13	0.006300628721841245
119	0x3f864794f98397bf	0.01087871920067218
120	0xbfabcce099accd89	-0.05429746509471573
121	0xbf6271592c8d0b2a	-0.00225131432344607
122	0xbf42bf24f60deddf	-0.0005721025919309084
123	0xbf38b07c775868a0	-0.0003767303345242421
124	0x3f7fed72acbaf09e	0.007794807384638029
125	0xbfaed407aeec387e	-0.06021141062056844
126	0xbfa9613988a10ae1	-0.049569890907624765
127	0x3f50e9fd7d237a12	0.0010323501087935488

W1 f8 [128, 64]
0	0xbf84d9b887df68e9	-0.010180894514566012
1	0x3f69a66ce1f235ba	0.0031311155904123174
2	0x3f6a562609c9fabe	0.0032149069723453596
3	0xbf978b800dab480c	-0.02299308856419917
4	0x3fa6fad085753801	0.04488231305241187
5	0xbf542555a3c14087	-0.0012296043705824226
6	0xbf8082160c32ec80	-0.008060619590074092
7	0x3f44d9b19cd8b28b	0.0006363026856824478
8	0x3facb764fe4ccd32	0.05608668903587456
9	0xbf706aa93c66e069	-0.004007969930562274
10	0x3f98b09efa6e2ad0	0.024111255679182986
11	0x3f8c83b9ad465386	0.013923121071266708
12	0x3f7fbde1ca7d108a	0.007749444957713911
13	0xbf6a749ee3ab3a93	-0.0032294371897941348
14	0xbf81916c175b06ee	-0.00857815214419896
15	0x3fa4d501c6d6e9a3	0.040687613985443315
16	0x3fb1fa2c7085dc46	0.07022359606877257
17	0x3f85db158e0eb988	0.010671776197196406
18	0x3f66b03b2d8f63ea	0.0027695804424010444
19	0x3fab069fc2bf5326	0.05278491260802402
20	0x3f8dec7c3cd190fd	0.014611216169392533
21	0x3f653e0f2e0c305e	0.002593068741026313
22	0x3f93ba52471682b3	0.019265447224486375
23	0x3f93711672761032	0.018986082779079712
24	0x3f9cee95924046df	0.028253876735169988
25	0xbf6f2bea0b3efa39	-0.0038051196260931145
26	0x3f7e0d3270e21998	0.0073368044232950055
27	0x3fb157c43058fa2f	0.06774545841560874
28	0x3f8ee9e462254956	0.015094551320235777
29	0x3fb1c9b767c82c20	0.0694841984151684
30	0x3fb216730ab8cc9f	0.07065505038990459
31	0x3fa1d3c87eb3d396	0.03481890246067747
32	0xbf6b65c4f485e14b	-0.0033444258480665227
33	0x3f7b1a5be437da30	0.00661693472965523
34	0x3fa1cd42e4a8929d	0.03476914445153521
35	0x3fb5c73479b59435	0.08507087680261878
36	0x3f7e1878110fa61c	0.007347554216701659
37	0xbf90eed0499734b3	-0.01653600167428655
38	0xbf81070a7372e039	-0.008314210556236034
39	0xbf5e4fcaa91b57ac	-0.001850078497616074
40	0x3f82cf5f168c25a4	0.009184592128366038
41	0x3f8d25344ff5e1a8	0.014231117906761195
42	0xbf7da5ea4814f05c	-0.007238307154065007
43	0x3f93e42898cccc6e	0.019425043417140513
44	0x3faf9e96d82d85c9	0.06175681485070645
45	0xbf9cc3c00484d43d	-0.028090477252778568
46	0x3f7e8094466249cf	0.007446841429685282
47	0x3f933179558aac08	0.01874341568570162
48	0x3f9564ae8a180321	0.020891883066727183
49	0xbf874f0935cf3678	-0.011381217913277938
50	0x3f822cbe5238dc34	0.008874403843135516
51	0xbf8eba8de9e2fb25	-0.015004261684564544
52	0xbf8b53616da0253b	-0.013342629583365287
53	0xbf90d57a45df3fdc	-0.016439352526333426
54	0x3f6b262b771bb71e	0.003314099209879808
55	0x3f96d05fe3568313	0.022279260874372996
56	0x3fa244eb47c0f87b	0.03568206072712684
57	0x3f97cda1e00b0917	0.023245362567430563
58	0xbf8cbee79dcaa0ce	-0.014035996916689799
59	0x3f8b6077ce90b913	0.013367591849683202
60	0x3f7bdea1006473da	0.006804112350690306
61	0xbf9a3c464fd73e1b	-0.025620554564566782
62	0x3f6252d5f0c39e0e	0.0022367647671790508
63	0xbf61e30363f44fd0	-0.002183443662611119
64	0x3f6a32e2f3ea6ac9	0.0031980927154341182
65	0xbf86cb42776beebf	-0.011129874486406675
66	0x3f53209d5275373f	0.0011674438809054636
67	0xbfa0017a28b131fb	-0.031261270015054486
68	0x3fc35725640fe2dc	0.15109698663561388
69	0x3fb601f295f640dc	0.08596721802883017
70	0xbf7949972ccf9b15	-0.006173697021018017
71	0x3f834d2b11248ae9	0.009424530468611763
72	0xbfb4a68e4c032f41	-0.08066644054195839
73	0x3f98527cd33f1256	0.023752165215926567
74	0x3fb97239c1db5efe	0.09939919455370824
75	0x3fa3e5d6fefa265c	0.03886291372789394
76	0xbf9022c7a7792b66	-0.01575767478633896
77	0x3f7f26184c33d92d	0.007604689514883395
78	0xbfac05e82e282121	-0.05473256648480374
79	0x3fc3fb814d704e81	0.1561128261679308
80	0x3fc5540306558b22	0.16662633713993907
81	0x3faf3d73b6cfe3f0	0.06101571661560701
82	0xbf81ed85d45a4222	-0.008753819983469194
83	0x3fb6ea6463bf8872	0.0895140403295345
84	0x3fb3bec05d12e0ad	0.07712938568409085
85	0xbf97ad068e04c475	-0.02312097780049212
86	0x3fb61d3d2d2fb8fd	0.08638365128692622
87	0xbf98a8c8dc8dd819	-0.024081362210800792
88	0x3fa88c3ff3ed0428	0.047945021177391134
89	0x3f9b76d0f319004c	0.026820435369018278
90	0xbf984557208fd004	-0.02370201240769633
91	0x3fbdac4b04887e58	0.11591023312257087
92	0x3fa021aa489b6619	0.03150684486690753
93	0x3fc01ab28ecad184	0.1258147427776174
94	0x3fb3ac4299db6a12	0.07684723144794983
95	0x3f69e693d97701b6	0.0031617057499888314
96	0xbf87dceb0db17837	-0.01165183673418478
97	0xbf903a853c938214	-0.01584823782184415
98	0x3f982e28390b0975	0.023613575441012686
99	0x3fc5face9c9f9d04	0.17171652457839326
100	0x3fb98df838c14316	0.09982253442400366
101	0x3fbb016f831815c5	0.1054906554273521
102	0xbf4ab0f52cd1db84	-0.0008145520347529888
103	0x3f87e9fef991f6f0	0.011676780692364969
104	0x3fa687d462374273	0.04400504778789562
105	0x3fb03ac0dc9fc749	0.06339650522548114
106	0xbfb43a463e0a0558	-0.07901419653537312
107	0x3f98761085a69d8b	0.02388788047542571
108	0x3fbf7bfe6b891c50	0.12298574567204068
109	0x3faec72c7dc4840d	0.06011332545518409
110	0x3f3065c5b54e4731	0.00025020672665575493
111	0x3f82a33a9aece6f2	0.009100396969745603
112	0x3f9e9d7f794c9603	0.02989768197871535
113	0xbf78a597341bb5bc	-0.006017294539316816
114	0xbef0d2e69e7c36ff	-1.604445597452094e-05
115	0xbfb418f7906e5c4a	-0.0785059669127445
116	0xbf8ab660ffc7cfda	-0.013043172651101931
117	0xbf6c0c3bd98c154e	-0.003423802274826449
118	0x3f74b232c8f5f110	0.0050527557171984455
119	0x3f898fdbfbf980e1	0.012481421115069615
120	0x3fbcbddbb04405de	0.11227200559007808
121	0xbfb6bdf760276446	-0.08883615586764035
122	0x3f9adbd127f5e885	0.026229160369873234
123	0xbf614ae486a0f612	-0.002110906924854169
124	0x3fb276493110da5f	0.07211739967247287
125	0xbf976e41e9d102a1	-0.022881536384604776
126	0x3f895fbba1c8dcdf	0.01238962733724097
127	0x3f91acef0adb0117	0.01726125243908524
128	0xbf83ab9133d2b0af	-0.009604582208645544
129	0xbf5f7edda03e2ad8	-0.0019223369899658473
130	0xbf930082b2708d40	-0.01855663503751015
131	0xbf8369f857cc6331	-0.009479465655702764
132	0x3f850cc3ca977881	0.01027825319300413
133	0xbf8c89856b1bfc30	-0.0139341758072061
134	0xbf8b26ca197e1d51	-0.013257578757260776
135	0xbf6e102161cfc2bc	-0.003669800948493977
136	0x3f6af80e6360ebd8	0.003292110540340936
137	0xbf8c7b19b6a0b9d5	-0.013906670461520424
138	0x3fa34e35f0bc0715	0.03770607532170637
139	0x3f901cf97a9a6b0d	0.015735529049020026
140	0xbf8d59884ee2c4df	-0.014330925853160923
141	0x3f808b8d82a9e446	0.008078675794637512
142	0xbf96f4ca66b6f68c	-0.022418177146156057
143	0x3fab25b4c2010bdd	0.05302204960073429
144	0x3fb2fc51c60f9639	0.07416258893462037
145	0x3f85055a22ac5548	0.01026411455454003
146	0xbf93fc5b2f7f19b3	-0.019517349981265485
147	0x3fab91296c5be435	0.05384187171689129
148	0x3f920769863ef023	0.017606400316921744
149	0xbf890fcca3cef3b4	-0.012237166165386039
150	0xbf3a01e4d7730832	-0.00039684140160656516
151	0xbf8bb5b4ff30847a	-0.013530172384039075
152	0x3fa24a6fcd22994a	0.035724157133972215
153	0x3fa7e5e9e8a79dad	0.04667597737335014
154	0xbf80b8d711f25fb2	-0.008165054545585668
155	0x3fa5ff6dd23ad018	0.04296439353257159
156	0x3f900dc4e04bbea0	0.0156775247477855
157	0x3fa31573330805ee	0.03727302549306076
158	0x3fa86c8a9ab9bb23	0.047703105342284745
159	0x3fa96faaeefcdce7	0.04968008200960999
160	0xbf606d6b2d3397d5	-0.002005299882159565
161	0x3f90dd342e8237ed	0.016468825663245857
162	0x3faaa7b43b033cff	0.052060730174725116
163	0x3faec71db2437467	0.06011288453167012
164	0x3f8e18ace4f70f92	0.014695502030811079
165	0x3f875ef6cdc0b2ed	0.011411598352503794
166	0xbf75d0b6c7b18d5f	-0.005325998291570626
167	0xbf90421e01029134	-0.01587721711315844
168	0x3f90590794ec5c64	0.015964621033245044
169	0x3f8b5d2a5aa7f94e	0.01336129273567779
170	0xbf731391c5b1778b	-0.004657334730920125
171	0x3f97b352a8871d76	0.023145000015373417
172	0x3fb4f5312f6e851b	0.08186633499146405
173	0xbfac8c157f4d6959	-0.055756255903093695
174	0x3f91c1ec98c1b200	0.017341324637913047
175	0x3f9262fc6f46dc18	0.0179557269018141
176	0xbf73e5c4ae1d7ff2	-0.004857795984065648
177	0xbf8e143fbc4ed447	-0.014687059339715825
178	0xbf98b09f3ea13f64	-0.024111259648918262
179	0xbf8a27b40885c910	-0.012771040449227417
180	0x3f5988938011f878	0.0015584412033429456
181	0xbf8381d52b7616a2	-0.009524979962189765
182	0xbf6043844babf486	-0.001985319509343389
183	0x3f86f62f4fa8535b	0.011211747759298943
184	0x3fa6f2d9b62a9502	0.04482155178747328
185	0x3fa97ab8ed445e76	0.049764422381653725
186	0xbf896ad431e4d635	-0.012410791180268091
187	0x3f7644bc4ea22372	0.005436645102357628
188	0xbf6b0b9b06c0344f	-0.0033014324053568865
189	0xbf6ebe5de7245782	-0.003752883342836578
190	0xbf8d089484016d5b	-0.014176521566858715
191	0xbf85fdd011a7f677	-0.010738015688725995
192	0xbf80560ffb591e39	-0.007976651056323824
193	0x3f7113f9e301a4ce	0.00416944133767423
194	0xbf96d41a87fee604	-0.022293486166494972
195	0x3fa6f7108decb17e	0.044853703808572995
196	0x3f96acf505317504	0.022144154016463538
197	0x3f93e9ae387e360f	0.019446108053264462
198	0x3f3a2505113525a5	0.0003989350672851339
199	0x3f7f8e256c1708a8	0.007703920536586896
200	0xbfbf7b90ef89d451	-0.12297921989541406
201	0xbf765bef8915c46a	-0.005458770452024012
202	0x3fa58345e78a3de4	0.04201715899864292
203	0x3f99cb84b6e8325f	0.02519042364478918
204	0xbf9109d97ad70edd	-0.016639135477602863
205	0x3f87844684098341	0.011482764152960125
206	0x3f9c75df6e4cdafc	0.02779339895934195
207	0x3fb4e75a2fc7fcdc	0.08165515581639532
208	0xbf884856b394f9cc	-0.011856725078016071
209	0xbf7628e8ba8583aa	-0.005410107704251136
210	0xbf89f5d81646791c	-0.01267594163874413
211	0xbf9a9a82a4862bc2	-0.025980035106424777
212	0x3f76f2c355c41acc	0.005602610614238567
213	0xbf93f39c94a5278d	-0.019483992168978715
214	0xbfab3bf86ca11d9b	-0.05319191289941757
215	0xbfb14271e6c2c30f	-0.06742011913116762
216	0x3fc25adacdc35455	0.14339766547223812
217	0x3fbeebcd09a90f11	0.12078553663110038
218	0x3f94d7b5f38df917	0.020354121199027988
219	0xbfb7e461f538d959	-0.09332859265200479
220	0x3fb91cb25db5cb25	0.09809412753911013
221	0xbfb441365d2b0a81	-0.07912006163227582
222	0xbfb47e4b6cc3fcd6	-0.08005210309419239
223	0x3fc021ccac7731c0	0.126031479083748
224	0x3f7b241d007cb543	0.0066262371908981125
225	0x3f79940cb383bdf5	0.006244706739593199
226	0x3fb2a4f4f741bb0d	0.07282954250852587
227	0xbfbad9ae68d0f291	-0.10488405283917702
228	0x3f9851203845ed48	0.02374697059120237
229	0x3fac3795e536bd21	0.05511158392925553
230	0x3f7f935b8c67f024	0.007708890544105205
231	0x3f8b57f00273c523	0.013351321291767143
232	0xbf8bd4caf2e696ba	-0.013589463746778708
233	0x3fb671f6584fb660	0.0876764264682719
234	0xbf87b89c75d47520	-0.011582586618312407
235	0xbf82f459ea78818d	-0.009255125492075656
236	0xbf9f1df309dcd3fa	-0.03038768527695266
237	0x3fa498131403afa3	0.04022273654285804
238	0x3f613b75cfc8108c	0.0021035481461258495
239	0xbf96bf251bef8b58	-0.022213535146771463
240	0x3f96d55d20aa3c0a	0.022298293226921152
241	0xbf5bfae6fdc56f37	-0.0017077689909319024
242	0xbf729e4e8d9ce878	-0.0045455044253747065
243	0x3f92de640f82e9da	0.018426478811969328
244	0x3f62b7b89a3a3ee0	0.0022848706738115426
245	0x3f9fc4dde84d96ad	0.031024424842505272
246	0xbf93ee2829247592	-0.019463183890470477
247	0xbfa90cf7046dd1d1	-0.04892703942360622
248	0x3fc748dfe3fa3de0	0.18191145545686904
249	0x3fb5ba471c6fdc51	0.08487362331639871
250	0xbfa0205d11aeb5f2	-0.031496914299491766
251	0xbf91a667f00a8134	-0.017236351037923828
252	0x3f775bbc892e820c	0.005702721088625139
253	0x3fb365a6291d289d	0.07576979163892124
254	0xbf662a6bec4cb29e	-0.0027057750579813763
255	0x3f660bd29a10930e	0.002691184360190119

b1 f8 [1, 64]
0	0xbf611eab11696dbf	-0.0020898190662543554
1	0xbf29a3602f0f132f	-0.00019560383910124368
2	0x3f99b5d0a0cd5bb5	0.025107631506525247
3	0xbf92939d0570adda	-0.018141225297012877
4	0xbf9d9ac2748fabc4	-0.028910673488933517
5	0x3fa8a93e111a3e61	0.048166217410763996
6	0x0000000000000000	0.0
7	0xbf833a717e63dccc	-0.009388815564746265
8	0x3fb70f246b1adc7d	0.09007480254045848
9	0x3f70ef0802b85fdd	0.004134208003527787
10	0xbfb0e620af06ee4d	-0.06601146958467403
11	0xbfa01e99fd8d47af	-0.03148347110858595
12	0xbf3d3793ac191556	-0.00044581752090196625
13	0xbf2e76345e1ffb53	-0.000232404606379045
14	0xbf8255f19a89de26	-0.008952987221376562
15	0xbfbc6a86afe04feb	-0.11100045961239828
16	0xbf93ba1358c91d57	-0.01926450948147126
17	0xbf8720c4527b9e63	-0.011292966620614913
18	0xbf11c3a340c6ff1a	-6.77650825258138e-05
19	0x3f8ba7f15fb48e5f	0.013503919346994296
20	0xbf9a7b66efa3e057	-0.02586136663100577
21	0x3f6b8658a1589dbf	0.0033599597034201507
22	0x3fa679a608be9068	0.043896854941778696
23	0x3fb1d74b38bf6652	0.0696913732093887
24	0xbfbc83904594990a	-0.11138250063649849
25	0xbfb858a0f729377b	-0.09510236772731943
26	0x3f22ab07dad30460	0.00014242621310781283
27	0x3faf16117c5d1a62	0.060715242797006366
28	0xbfb79d9f53d63648	-0.09224887654109992
29	0x3fabfa1b685bddb3	0.054642540444486264
30	0x3fafe27ef53dcd14	0.06227490180654108
31	0xbfb5934416a45520	-0.08427835037976594
32	0xbf72614397356229	-0.0044872894535151
33	0xbf758281913e7dfb	-0.0052514134621612875
34	0xbfa5f5d9e55b7559	-0.04289132046481354
35	0x3fad91f522e9b499	0.057754192840414116
36	0xbf91cafa3efbe6f0	-0.017375860304105595
37	0xbfa28744fff59664	-0.03618827461722843
38	0xbe9398e4857edd5c	-2.920215869078337e-07
39	0xbf580ede0bf6f5b1	-0.0014683884072462623
40	0xbf90a2e34590c7a6	-0.01624636756986999
41	0xbfbfbe03db1413da	-0.12399314974398071
42	0x3fa8132c721a0aa2	0.047021283081467816
43	0x3f82f4e355a35251	0.009256149340594851
44	0x3f925857802d995f	0.017915122221347498
45	0x3fb9936adc9fd0c5	0.09990566145262665
46	0x3f04e3f79f1118a1	3.984546118167396e-05
47	0x3f927fbcdc2765f3	0.018065405785682342
48	0xbf855f14ead7f6c4	-0.010435260216577709
49	0xbf6709cb9590b54d	-0.002812287927119661
50	0x3fa5e2ad5922f739	0.04274503434269978
51	0x3fa0bfa5c76895cd	0.03271215495287159
52	0xbec87da92fa624d8	-2.9195383579079226e-06
53	0xbf8220aee35c0af7	-0.008851400674307437
54	0x3f0003f97b9089f7	3.0547190768243715e-05
55	0x3fa2ba3fc4c80a2c	0.03657721783749354
56	0xbfc6cb0b30b7ab90	-0.17807140234739594
57	0xbfaa5f6763fdf99c	-0.05150912376028602
58	0x3fb36956a7ef4cb0	0.07582608795137236
59	0xbf6e0d69d0e88455	-0.003668505355805022
60	0x3f674c4e821f9996	0.002844003044617692
61	0xbf9ed8b9f36b5fc3	-0.0301236204930715
62	0xbf3dde925abf5e6a	-0.0004557711897610119
63	0xbf737fed39d773f5	-0.00476067224869058

W2 f8 [64, 10]
0	0xbf7a4af7cdb934b7	-0.006419151289788142
1	0xbf9153092ac219ef	-0.016918318972352905
2	0xbf427c72496f55b0	-0.0005641515771183572
3	0xbf7b99d56d9b6f67	-0.006738504127237955
4	0x3f71b41d781f8bce	0.004322161783394797
5	0x3f5657aa50ac0855	0.0013636744722025547
6	0xbf82c5e4e6481a17	-0.009166515615118205
7	0xbf772059c97330b0	-0.005646086435444328
8	0xbf4afecd2999ff8a	-0.0008238317270325851
9	0x3f9098df4e182df8	0.016208161489016576
10	0xbf80f24418709f3d	-0.008274585719916789
11	0xbf71bcad4cdf214d	-0.004330326990335043
12	0xbf62ee73af7f7ea1	-0.0023109683497607035
13	0x3f768adff8a6016d	0.00550353516371192
14	0x3f7d739a5c6e15b5	0.007190325711126479
15	0x3f8ad2a4042eb3cc	0.013097077729833283
16	0xbf65a34416c4a634	-0.002641327844817432
17	0xbf5669f335785177	-0.0013680338942139972
18	0xbf4badbb9e87cbe7	-0.0008446851834932296
19	0xbf8a936267c4c9b9	-0.012976425925988676
20	0xbfae320cdf11126b	-0.05897560332281134
21	0x3fa45d93c4fcb443	0.03977643756511686
22	0x3fad690d1579d5a0	0.05744210135609795
23	0xbf8e9c4a35f4e4b7	-0.014946536800027095
24	0x3fae712d508e75c0	0.05945722206454773
25	0x3fb3288a14c9f31c	0.07483733184376401
26	0xbf8533ab5abcc9be	-0.01035245772036297
27	0xbf80fe9cdda49f96	-0.008298135293969538
28	0xbfbd1b5556c540af	-0.11369832390232902
29	0xbf9176016e96b7f5	-0.017051718115617082
30	0x3fb951d9da6ceacf	0.09890519697811871
31	0x3fb5585983004fdd	0.08337935875198306
32	0xbfc7ffeedf113f46	-0.18749795810662756
33	0x3fa28ae80f82176d	0.03621602238949504
34	0xbfabcfaeefd82856	-0.054318873193623204
35	0xbfac1734d65e09bf	-0.054864550750625345
36	0x3fa9af9ee2b2f051	0.050168004201140655
37	0xbf689a9813d88dd8	-0.003003403688823996
38	0x3f90e1926d3c2abd	0.016485488812615346
39	0xbf78c4e1809f8d3b	-0.006047135228047391
40	0x3fe0e0996749f725	0.5274168984758246
41	0xbf95b4dba42790ce	-0.021197730917166528
42	0xbfd9e38dcb762ea2	-0.40451378697683016
43	0xbfa2007ed2c9fb80	-0.035160029631689405
44	0x3fc3748cc37b9a55	0.15199431939182043
45	0xbfc95790dfb0ecc1	-0.19798479959886175
46	0x3fb0de70645e2fb9	0.06589415026081626
47	0xbfa230b91be0eb57	-0.03552797761263687
48	0x3f7a7ff996bad6f5	0.006469702678875801
49	0xbf9408a7a57691b4	-0.019564265703267927
50	0xbfca18201d822528	-0.2038612503131756
51	0x3fb3996bedf38e5a	0.07655977782592896
52	0xbfb40565a0bbeaf8	-0.07820735143824808
53	0x3f6fa2925c762b0f	0.0038616999260673367
54	0x3fd3b03ac36b5ca7	0.30763119777607034
55	0x3fdb50f253023e37	0.42681558710407635
56	0x3fbe41e422ee6501	0.11819291928113175
57	0xbfa4cdfc7c84e322	-0.040634050560077975
58	0xbfe12be962a9dac2	-0.5366103102704403
59	0xbfa77e02889a0fd0	-0.045883254218125225
60	0xbf868af0fc8f3d1f	-0.011007197101121023
61	0xbf72dc1a766ef52a	-0.004604438180590345
62	0x3f94d21826215eee	0.020332696273128663
63	0xbf9608147911f747	-0.021515197648560826
64	0xbf462dddb4abd1c8	-0.0006768543765632235
65	0x3f62db78a5beee23	0.0023019176860239617
66	0x3f7304ee9f5614a6	0.004643375510004299
67	0xbf8018fd984ff908	-0.007860165796952603
68	0xbf81bcbee631a611	-0.008660785102807574
69	0x3f866d53db2ca69e	0.010950713277981191
70	0xbf8878e43cbc1ac3	-0.011949332335928436
71	0xbfa0db76f27b5d14	-0.032924382304992644
72	0xbfa1f820a075b397	-0.035096187198042354
73	0x3f58e53b95b4aa44	0.0015194970972724079
74	0x3fa6ea11999e19f8	0.04475455284323354
75	0x3fb768150bf08fe8	0.09143191853996735
76	0x3fa463bba8751dce	0.0398234027039127
77	0x3f7059272504bdff	0.003991272839172221
78	0xbfa18dc527021b6e	-0.0342847452275724
79	0xbf72dbbb995d829b	-0.004604084786337249
80	0xbfa39ee0780fa97d	-0.038321509033113245
81	0x3fd1ebea7eb2dae7	0.2800241696635752
82	0x3fe175b19aed7b15	0.5456169153147551
83	0x3f85412a2fd39a7a	0.010378198227454439
84	0xbfd7dc1188be2e90	-0.37280691484259254
85	0xbfdf4ff75f81cf27	-0.48925575568067575
86	0xbfd0b4f5e5e4fcad	-0.2610449547827994
87	0x3f9ebd6cf73889c6	0.0300194764987596
88	0x3fd6f5f665690c17	0.3587623586974486
89	0xbfafbbe93e5cbf3c	-0.06198052297838649
90	0x3f88ac0a169983be	0.01204688912838658
91	0xbf8c51235e60b967	-0.01382663375633504
92	0x3fa789f25809ba6b	0.045974324461771264
93	0xbf835f33db3598e1	-0.009458928229559795
94	0x3f8df88a547b0f22	0.014634209349771835
95	0x3fac9d6c23573560	0.05588853770641822
96	0xbfafb5502658edfb	-0.06193018406017
97	0xbf53062e4474a78c	-0.0011611415701033604
98	0x3f833e0691c7c8f8	0.009395648311486302
99	0xbf8930014a1f6311	-0.012298593592207337
100	0x3fe350e5876942b0	0.6036250729321946
101	0xbfafcf087b70ab01	-0.062126412456867904
102	0xbfda82f6c2788a40	-0.41424340239806057
103	0xbfa9d4346b08e9d9	-0.05044711882188197
104	0xbfb6214ea421b97e	-0.08644572741625287
105	0xbf9fd8773d18ecb1	-0.031099188903891576
106	0x3fc217dce623a83d	0.1413532375075323
107	0xbfa289e1d202d70d	-0.03620820702182757
108	0xbf967a0a711a06cc	-0.021949923661401624
109	0xbfb2329ac8ee12d6	-0.0710846653510758
110	0x3fcaea0749bb8d54	0.21026698208070604
111	0xbfa152b41279b783	-0.03383410192041849
112	0xbfc5d8f46f775a64	-0.17068343584715528
113	0x3f7950c0f6955d30	0.006180528414311312
114	0xbfa8cbd2ad8601dc	-0.04843004577833529
115	0x3f6bea019df47ada	0.0034074813444385623
116	0x3f99b2dc59a3ac70	0.025096362086440782
117	0xbf9d482985a3f688	-0.028595589429633722
118	0x3f9da7fb86b0f398	0.028961114974879715
119	0xbf98a86f89914dcf	-0.024080031177005353
120	0x3f82d7809a217d05	0.00920010061616817
121	0x3f82d39166df94df	0.009192596389718975
122	0x3f8011e46a1f4f7d	0.007846626747699531
123	0x3f911944b7678966	0.016697953886145277
124	0xbf8982fd4d2b92cf	-0.012456873815105322
125	0xbf992cc35e0afb17	-0.024584820380137175
126	0x3f922f914a15c62c	0.01775958075217525
127	0x3f78b9e70cec88f1	0.006036665478662538
128	0xbf7c5da192bc0f72	-0.006925231118433449
129	0x3f596bd8ca2d39aa	0.0015515915954043926
130	0x3f776f3b049ea088	0.005721312083473269
131	0xbf41ccc73000858b	-0.0005432102771047315
132	0x3f7c54f4e8035a33	0.006916958489645841
133	0x3f7ee507e752551d	0.0075426396116615975
134	0x3f1796aa491e90c8	8.998312321623341e-05
135	0xbf70984061c437ec	-0.004051448337362356
136	0xbf307d1180171a17	-0.00025159528021526225
137	0x3f815e04f2a55d1c	0.00848010888573341
138	0xbf8777d4c7b0a886	-0.011459028572137219
139	0x3f8882cec7ec8a24	0.011968245960422293
140	0x3fc3cb1843a7de4f	0.1546354608869813
141	0x3fbf1172562f444b	0.12135996440999113
142	0xbfc71cf01bd67d6d	-0.18057061538000188
143	0x3fac00e064a723f3	0.05469418743775369
144	0xbf89d68624f8d56b	-0.012616203311248872
145	0xbfc363220c1e8877	-0.1514627989936945
146	0x3f8c9b1f6a912947	0.013967748107593393
147	0xbf558944dd2c92e7	-0.0013144657611487366
148	0x3f9661c1911a2e16	0.021857285004939518
149	0xbf86689c51d2d645	-0.010941716429765278
150	0x3fe95481faffa391	0.7915658857647135
151	0xbfaa09ab03667cc6	-0.05085501114376138
152	0xbfe0f044fc180cd1	-0.5293297694883227
153	0xbfab1ab5e9f78278	-0.05293816071548901
154	0xbfc64b6a46beccee	-0.1741764874874216
155	0xbf9f8d3de2028b4c	-0.030812231940795784
156	0x3fcb8aab82fc4fba	0.21516937156468235
157	0xbfb72a140d7fdfba	-0.09048581437661954
158	0xbf7e4eb51e3c428a	-0.007399280064206546
159	0xbfb44725cb938363	-0.07921062679407735
160	0x3fd0ddaf93407d1b	0.26353062992161974
161	0xbfe165acbd453c6f	-0.5436614700974028
162	0x3fd60bffc68faafc	0.3444823683809515
163	0x3f941390fc2c8f9d	0.019605889693721335
164	0x3fbc2dd11b151e67	0.11007410918420533
165	0xbfca5cf4732988cb	-0.20596175788074897
166	0x3fcde215542a526a	0.23346201524386184
167	0xbfb4794b391dbbd7	-0.07997579712331003
168	0x3fac10f1a2740e4c	0.05481677158425366
169	0xbfc185152c6d81d7	-0.13687386197399462
170	0x3fcca844890e1847	0.22388512317792417
171	0xbf895550dc22d6b2	-0.012369758337040213
172	0xbfcadcc23f7d2a5a	-0.20986202335400855
173	0xbf66d7608529f926	-0.002788246646843312
174	0x3fb1d9e9c2b23a76	0.06973134044003779
175	0xbfba5e933219b3b0	-0.10300559971956491
176	0x3f98a6fd99a53e3e	0.024074518683219852
177	0x3f732e2a5395d653	0.004682698572073446
178	0xbf848fa81929519a	-0.01003962828432563
179	0x3f80c4671c173b15	0.008187108559381021
180	0xbf74ebed160ab064	-0.00510780917890594
181	0xbf9aefe55674723e	-0.02630575504473342
182	0xbf2e2e94256cd706	-0.00023026998925395492
183	0xbf80798e299c5e51	-0.008044348378049156
184	0xbf804839d8f09f25	-0.007950260098439419
185	0x3f4d67ce6bb93d99	0.0008973844446219958
186	0x3f86e745ed474d9c	0.011183306029954924
187	0x3f8698532d86d2df	0.011032724215377097
188	0x3f8250d488a7b9ab	0.008943233890900645
189	0x3f809ab8a6e73747	0.008107607453805022
190	0x3fb9fc9405ad8874	0.10151028765315734
191	0xbfd1c96df7264a65	-0.2779192842073484
192	0x3fd1faf74bf70b13	0.2809427491994693
193	0xbf963a19c73cad6c	-0.021706011567557068
194	0x3faea77f7353c38d	0.059871657207515395
195	0xbfc84ab5aaf0cd33	-0.18977995726309302
196	0x3fb1528585103502	0.06766542910209597
197	0xbfa20e92178ca40a	-0.03526741540401453
198	0x3fb86afd9ed92eef	0.09538254860052196
199	0xbfba334831b1486c	-0.10234500134655072
200	0x3fd3ba1ec895881e	0.30823487842838115
201	0xbf8f31f500fa5927	-0.01523200425371536
202	0xbfd121213d045421	-0.26764708479578486
203	0xbf9b3fa4e392171a	-0.02660997046452627
204	0xbfb1e2462441cbf1	-0.06985891709500415
205	0xbf7006e408974d91	-0.003912821537102388
206	0x3fa36ab74c7a9a8b	0.03792355354862761
207	0x3f7367057cf14263	0.004736920774192829
208	0x3f8d6c97832b2ad1	0.014367278757523224
209	0xbf854cc9b1cf4f8e	-0.010400367487740227
210	0x3f91b4163d7a4968	0.017288539411830867
211	0x3f6c4d5ffd0eafb6	0.0034548640037055057
212	0x3f81ba23736e4f2a	0.008655812225505228
213	0xbfa270655d35bd9f	-0.03601376307312453
214	0x3f8d454f6ab717c0	0.014292355007352486
215	0xbf8d23fd8d1dd137	-0.014228802556069382
216	0xbf9a83fd0d12217e	-0.025894121096400984
217	0x3f94196fa47896b1	0.019628281034008214
218	0x3f4cf9aeed37929b	0.0008842567571574923
219	0x3f47c76d715f1ada	0.0007256779087974855
220	0xbfc5320d4e22d9c3	-0.1655899650119875
221	0xbfa1a600c09934f6	-0.03446962691359971
222	0x3fd22178426b065b	0.28329283224238616
223	0xbfb821910dc195ac	-0.09426218591541752
224	0x3fb48288e432fc7a	0.08011680194157292
225	0x3fb24103862a4ece	0.07130453134078182
226	0xbf5ac517d8e65851	-0.0016339047320790454
227	0xbf94939a20c8d150	-0.02009430718517652
228	0xbf9c91b192d8eb50	-0.027899527156687143
229	0xbf943782bfc223f5	-0.01974300666237024
230	0xbfc0af1dd5a11575	-0.13034413272013592
231	0x3fc1d781c9601a4a	0.13938925106795558
232	0x3fcb9376c1f20878	0.21543774099342605
233	0xbfa3ef6bed1fd8ab	-0.038936016746377554
234	0x3fa124b02017ee46	0.03348303214803798
235	0xbfa5fdf5d8708098	-0.04295318858226088
236	0xbfc056cc35748c1b	-0.12764885530586487
237	0xbf83ddcd394e091a	-0.009700396834663883
238	0xbf857177b97a400e	-0.010470328662705721
239	0xbfa1bcd4e2fce679	-0.03464379568908966
240	0x3fd30d0e6926ede3	0.2976718928218515
241	0xbfa03fa64002f4c1	-0.03173560649290997
242	0xbfdf724c94408da1	-0.4913512656950961
243	0x3fc2153ec12f6753	0.14127335007543226
244	0xbfba3528d55decc2	-0.10237364968445475
245	0xbfaf764355f7953f	-0.06144915031817754
246	0x3fd1ec598b24b8d0	0.2800506457159715
247	0xbf7071ca3e06bb1b	-0.004014768608995546
248	0xbf88f280f30f62be	-0.012181289117436985
249	0xbf98fe6b2698b7c5	-0.024408029776331625
250	0x3fd65054d05b1556	0.3486530337070993
251	0xbf800ce895329a90	-0.007837121060515956
252	0xbfd8afcdee70110c	-0.38573025021493446
253	0x3fc78bfaffbe97cb	0.1839593647720775
254	0xbfc398b49fc2d1db	-0.15309770394163888
255	0xbfd5ff754b7b6c08	-0.3437169301157046

b2 f8 [1, 10]
0	0xbfd5581ce1005e78	-0.3335029790191366
1	0x3fd996c355064a7b	0.39982684424572995
2	0x3fe2b120bf488188	0.5841220603943365
3	0xbfc54f2dbc088aeb	-0.16647884064976579
4	0x3fd9547c79755166	0.3957816301456404
5	0xbfc4f95c57dc53c9	-0.16385988512106867
6	0xbfa59e4d370ea68f	-0.04222337052426638
7	0xbfcc52dba7003b17	-0.22127862600651646
8	0xbfcc146354c1594d	-0.21937219274941314
9	0xbfcdd36c7aae65c0	-0.23301464071555067
