data/weights/simplemlp_weights.npz (npz, 822422 bytes, 6 tensors)

W0 f8 [768, 128]
-0.05626310128749196 0.04208901731713963 0.0006346199417049126 -0.004410518694883601 0.0007035557406726198 -0.054933636481127306 -0.004321751320278103 0.06423408809186347
-0.05916841384199355 -0.04953665256759126 -0.014179917323228021 0.017644386110847766 8.14181772404632e-05 0.04736815984146224 -0.02863420720467005 0.06717617962819362
-0.05765946349866635 0.0768073717356466 -0.058728969257191385 0.06223887538049343 0.015740874677238694 0.05129476816958482 -0.06042311018874154 0.06430956402775595
-0.07295588029272075 -0.022410144170685393 0.07813906819097312 0.017942309933210256 -0.03828204551391658 0.04451772864136471 0.043074842465962444 0.05536159568084431
-0.023560082956579978 0.07421415594846738 0.035103308735653226 0.0397699652706884 0.055054487714901824 -0.0015722797321214425 0.02136096737903121 -0.030888638712924046
-0.0771206455372591 -0.02281093105533277 -0.02415823632283268 -0.0816830605528727 -0.027725251936637947 -0.06349511112262538 0.07081918836875542 0.02120177826506954
-0.00458297138029469 0.06947379414730269 -0.05276985813731496 0.022988466910676804 -0.0515966445406467 0.01926601285408681 -0.07632265985985627 -0.034136082990981045
0.06789349599914471 0.07846119980257714 0.07457319981510169 -0.05318810364256865 0.06542434804467329 -0.014799887136946398 -0.06164162878104787 0.05694969449216521
-0.04711446242302386 -0.07777399819270454 0.06485254944173247 0.0717682914808186 0.04694497374759058 -0.03454217090326496 0.005293136681484102 0.06460214078816395
0.015887263240387754 0.021207722217484574 -0.06726582359573599 -0.016413981039465 -0.06656251193197604 -0.03984315688077709 -0.05071090258928505 -0.048548061388393196
0.06009013725748475 -0.026718132836565347 0.057898408534386506 0.007608436096376013 -0.0008869725803292714 0.0055873349727978945 -0.06940927361029106 0.07404346707677582
-0.033913091328828436 0.07550331934492405 0.030865209237419478 0.014015084387556479 0.03735779299292326 -0.07292335834326416 -0.006107715352203305 -0.020055784965157405
-0.060275958621016534 0.07388551617143066 -0.05866411106172067 -0.004436045296789321 0.08443582695356192 0.07709080560094733 0.016345595669191585 0.00973528534830073
0.03463645891884594 -0.03921059490700658 0.0067025965189693275 0.00701899092814418 0.050292220053747116 -0.038510132765068886 0.061221530660903196 -0.01957472375792853
-0.032326560819189054 -0.036411468548078404 0.023931247307413247 -0.04478163451886574 -0.014311567557169384 -0.03602899948594853 0.07349905338966553 0.07933000705294092
0.05993279251342506 0.014838062630143822 -0.06385172361506714 -0.03961142999283119 -0.023216738959845034 -0.05168059486091391 -0.041213245624384456 -0.0011079028448884864
0.04136240213885942 -0.07522499536391597 -0.019073546832757672 0.0012742479940807791 -0.018900186457343905 0.029653187408012822 0.01937144418017629 -0.008644808876539378
0.02626896254899825 0.07810038842521436 0.017668519866678885 0.0028995583914402695 -0.048425487877021986 0.009120117815260455 -0.01723553074455698 0.07109345448509526
0.015773112937259515 -0.01625878305717393 0.05997365652137535 -0.06394018345296662 -0.06777783045672643 -0.01968714869788523 -0.05420420252640606 -0.011050464842231107
0.026704759209863534 0.06913404468520849 -0.06249205152807058 0.04948652260071174 0.005083141941953928 0.07284877119157107 0.04473058842461354 0.02410063947363526
-0.021608693257832032 0.05784287776593983 -0.045332620334072996 0.0015056631936035366 -0.03962503010390284 0.0040433509520608 -0.03539530595293585 0.0320825749241389
-0.026676197877928257 -0.0652216426400578 -0.029633628516672495 -0.0127878209064456 -0.07189035806090474 -0.014742967321814165 -0.0019105135012453785 0.05641108375377983
-0.03893161273965302 -0.021526329177475604 -0.06388062265821322 0.03516877479444458 0.033969419395301965 0.01759775105973385 0.0727317643879314 -0.013447270583959099
0.006455490828981029 -0.0009550865638965271 -0.016164779334318643 0.02956408397409142 0.04895669134061316 -0.018984034278824686 0.016838925998743717 0.048206368950802686
-0.018841784271647875 0.01333546875525881 0.07950550586524088 -0.01553147521131323 0.06314590860033494 -0.07758050415323799 -0.007635496860795979 -0.07799327362070432
-0.07830403410262346 0.06350484479761656 -0.06678313198867605 -0.0640321223337762 0.07404663771160501 -0.02342611871283955 -0.08023915804734297 -0.07007387600265369
0.051928133726948426 -0.028629597830413526 -0.009754033457912911 -0.06979378923205073 -0.049150904885541864 0.06683549779821979 0.06730426609185101 -0.0011455949129024869
-0.018529162979036107 0.07833845927294987 -0.012039232208760362 0.03747801575087833 0.08043259642765273 0.05144218152172619 -0.05563030474516593 0.028103848257545718
0.024849901683900277 0.06318139618188309 -0.01533408106338822 0.05359715640590821 -0.0591937450310727 -0.07079339328628115 0.034293931482962406 -0.06361963044278546
-0.04711614725963211 0.049026574245019904 -0.007292165732902894 -0.06828139012252332 -0.010653292377139743 0.07952422390205506 0.0035988567401555246 -0.06227677904733208
0.015242907609124506 0.0721447119534658 -0.040859077628352045 0.0731442607689904 -0.00018879964910608048 -0.01573331749455364 0.007950750196115993 0.016519126285468245
-0.0694181117308207 -0.07857039130560743 -0.03303764759459701 0.021665688376509534 -0.02853772961816297 0.01572396468679674 -0.0654451854568444 -0.05567274552343788
00000000: 28ac 0068 84ce acbf 8db8 cb11 b18c a53f
00000010: 0bc1 8ff2 93cb 443f 64c4 d898 c310 72bf
00000020: ac3c d472 da0d 473f e709 46f8 4220 acbf
00000030: 6a08 5049 afb3 71bf 7f97 a42b a571 b03f
00000040: 2eab d084 524b aebf 3755 763d de5c a9bf
00000050: 1455 4e49 5c0a 8dbf ca62 37b5 5e11 923f
00000060: 7255 5aa2 e157 153f 6e14 c8b2 a340 a83f
00000070: 67ba f61d 4952 9dbf a5c4 9246 7532 b13f
00000080: 1038 108c 8a85 adbf d341 b2dd a5a9 b33f
00000090: 8e29 9334 b911 aebf 9e1b 991c c6dd af3f
000000a0: 77f4 cb37 601e 903f c610 7dcf 4e43 aa3f
000000b0: dad2 5d24 c7ef aebf 0cb9 5172 9776 b03f
000000c0: fb7a e88f 3cad b2bf 7538 3f51 aff2 96bf
000000d0: 858e 6b06 ec00 b43f eae6 8209 785f 923f
000000e0: e233 034b b499 a3bf dfb6 3619 07cb a63f
000000f0: e9e3 57df e70d a63f d0a4 cee5 5a58 ac3f
00000100: e481 2867 2220 98bf d9eb b2ec b2ff b23f
00000110: eb85 0096 0ff9 a13f 3bbd 6698 ba5c a43f
00000120: 2d92 7710 1a30 ac3f 3f61 e581 9ec2 59bf
00000130: 9227 3741 a6df 953f a720 5c74 45a1 9fbf
00000140: c3ce 6dba 2dbe b3bf aff0 7eab bf5b 97bf
00000150: 690f becb efbc 98bf f236 b659 2ee9 b4bf
00000160: f268 5d29 0264 9cbf 7e41 ba31 3741 b0bf
00000170: fe1a f9d1 3421 b23f c4e3 0f41 ebb5 953f
00000180: d060 2603 98c5 72bf efac cad9 08c9 b13f
00000190: b322 d49d a604 abbf c221 44e6 498a 973f
000001a0: 0d55 c519 e06a aabf 23cd 873c 78ba 933f
000001b0: 5db4 0ac0 e189 b3bf d29e 1ee0 487a a1bf
000001c0: 466c edd8 7761 b13f 8730 287f 0816 b43f
000001d0: d82a 5dae 3a17 b33f f0b7 5c9b 783b abbf
000001e0: 44c8 366b a6bf b03f 99c2 e639 674f 8ebf
000001f0: b4a0 5fd7 7d8f afbf 5bda b8a6 8228 ad3f
00000200: 700f 8d06 631f a8bf 1d82 b72a ffe8 b3bf
00000210: 501a ea3a 2d9a b03f fdc6 cc20 685f b23f
00000220: d53a eaed 2b09 a83f 0288 b9ec 82af a1bf
00000230: e830 0b8f 41ae 753f f8ce ef11 c489 b03f
00000240: d160 2930 c044 903f 2112 6325 7ab7 953f
00000250: e270 7b40 5538 b1bf 3df2 0b9f d3ce 90bf
00000260: b82f e3a3 3d0a b1bf 7d6f 8b7f 5266 a4bf
00000270: b6de 5788 c7f6 a9bf f20a e59f 4adb a8bf
00000280: 4985 aa6c 22c4 ae3f c711 f98a ff5b 9bbf
00000290: fa90 4a36 dca4 ad3f 3e7f 5203 062a 7f3f
000002a0: 0896 cb1c 7710 4dbf bdee adcf bee2 763f
000002b0: 3a00 3260 cec4 b1bf b3c3 933d 83f4 b23f
000002c0: abc0 5384 0e5d a1bf b86d 537f 2f54 b33f
000002d0: b020 0921 219b 9f3f b50a c3c8 f0b3 8c3f
000002e0: 2a89 4f86 8f20 a33f 1ae5 32ef 1aab b2bf
000002f0: dd4b 0e5b 6704 79bf 6c76 15f2 8089 94bf
00000300: 304e 068e 7ddc aebf 3eb8 9a43 29ea b23f
00000310: 5302 ebec 3809 aebf 0793 92d7 872b 72bf
00000320: d252 601b 969d b53f 5cdc e018 39bc b33f
00000330: 01ce 545b e6bc 903f 4f64 81e1 17f0 833f
00000340: 8283 9cb4 debb a13f 4a89 903d 6913 a4bf
00000350: 0c5d 8e8d 2e74 7b3f 05fb cb07 f2bf 7c3f
00000360: 5087 bfe0 e6bf a93f 12c8 94a1 99b7 a3bf
00000370: e1d0 ffaf 6d58 af3f d561 7979 650b 94bf
00000380: b069 0563 1b8d a0bf 4e06 3a25 86a4 a2bf
00000390: 5fbc 26d2 6e81 983f b09d 704f 9eed a6bf
000003a0: dc79 e614 624f 8dbf 33df ff9c 6472 a2bf
000003b0: 5e77 987e d5d0 b23f b942 e2a9 f84e b43f
000003c0: cb31 9bcf 82af ae3f e617 dc0d 6b63 8e3f
000003d0: 444e b828 9658 b0bf e1e7 bb08 f347 a4bf
000003e0: 0b8f 35fa 20c6 97bf 2fe9 8701 e175 aabf
000003f0: 52cc 3c0c e719 a5bf 00aa 199f e126 52bf
00000400: 7dd8 f0e8 732d a53f 7405 eefe f141 b3bf
00000410: 4a30 760f 0488 93bf 325f 8a5d 95e0 543f
00000420: baef e30a 925a 93bf 82ec 8eb8 675d 9e3f
00000430: 93ab eb9c 1bd6 933f f33f 3d9b 5eb4 81bf
00000440: 82f1 303c 40e6 9a3f 6658 1716 63fe b33f
00000450: cf04 fc4b b217 923f c9ba d98e d0c0 673f
00000460: d605 73bd 39cb a8bf 0187 047e 91ad 823f
00000470: e31f 82e3 30a6 91bf 4520 f93d 2e33 b23f
00000480: adf6 e2b0 d326 903f 9066 0376 24a6 90bf
00000490: 05fe c2fa ddb4 ae3f daaa d444 625e b0bf
000004a0: dd99 344d e359 b1bf de51 3c2f de28 94bf
000004b0: a737 503a a7c0 abbf 64e7 d248 a0a1 86bf
000004c0: 0fd0 d00d 7e58 9b3f 8392 f6cc c4b2 b13f
000004d0: 9061 254b f5fe afbf 615d 5328 4c56 a93f
000004e0: 0d07 6d86 0fd2 743f 6053 d291 37a6 b23f
000004f0: 1240 d47c ede6 a63f 9b65 6889 d6ad 983f
00000500: ec1f 68db 9620 96bf 795a 9fe8 949d ad3f
00000510: 6abc 8d53 d635 a7bf 6f69 388b 35ab 583f
00000520: 316e cc60 bb49 a4bf 2985 afc1 c28f 703f
00000530: 53e2 ff62 551f a2bf bf2b 2494 206d a03f
00000540: d48a de55 0151 9bbf ff64 2196 5db2 b0bf
00000550: 7d1a 5d25 4758 9ebf 856e a444 8030 8abf
00000560: e2f1 c410 6867 b2bf d60c f293 8f31 8ebf
00000570: f41b 6940 464d 5fbf 1674 b5df e9e1 ac3f
00000580: 39a4 fe26 d8ee a3bf 71df 477f ff0a 96bf
00000590: c546 2a01 7b5a b0bf 3041 2a43 a401 a23f
000005a0: 41de bb92 7064 a13f 088a 2315 2505 923f
000005b0: e931 6d85 8c9e b23f 374e 071b 3e8a 8bbf
000005c0: 9e74 d79f 1271 7a3f bcb7 44c7 d84b 4fbf
000005d0: ef10 5afa 7f8d 90bf 0b3d 3817 0c46 9e3f
000005e0: bae3 74f8 d910 a93f e5a9 7ef9 8c70 93bf
000005f0: 6483 db31 393e 913f f488 3454 81ae a83f
00000600: 29e5 fabc 424b 93bf 3c01 7251 a04f 8b3f
00000610: 9a0b 8b0b 795a b43f 2ed4 ba50 f7ce 8fbf
00000620: 7d8c 508c 542a b03f 9d35 25e0 50dc b3bf
00000630: 5dad e414 6646 7fbf 9247 82ff 5df7 b3bf
00000640: 5a9a 9db1 bb0b b4bf f216 8b7f da41 b03f
00000650: 42d9 d007 b318 b1bf 8829 51bf 6864 b0bf
00000660: 67a0 596f b8f4 b23f 4db6 f936 04fd 97bf
00000670: 8202 acaf 8d8a b4bf 5840 bc8d 5cf0 b1bf
00000680: 47f9 3208 5396 aa3f 615c 84c9 1351 9dbf
00000690: f887 a535 ecf9 83bf ea2f 377a 01de b1bf
000006a0: 21bb 1ab2 4e2a a9bf 0457 4195 211c b13f
000006b0: 8feb be35 da3a b13f b444 dd2b f9c4 52bf
000006c0: 8da0 1114 4ff9 92bf 3daa 9840 fd0d b43f
000006d0: 0538 d864 06a8 88bf 2720 f087 5130 a33f
000006e0: 256b 300b 3b97 b43f 6f9a 8a2e a156 aa3f
000006f0: 8d10 1847 937b acbf f7b1 a154 41c7 9c3f
00000700: b027 2aac 4072 993f 461a 51ee a72c b03f
00000710: 15a4 7385 7967 8fbf cd0c d823 1671 ab3f
00000720: 658b 127e a44e aebf 4cfc ef0c 841f b2bf
00000730: 5a57 5764 f98e a13f 94a7 2248 6049 b0bf
00000740: 93f1 2f8f 9b1f a8bf 73d8 08da 021a a93f
00000750: 60f1 6fd5 63de 7dbf 786c 80a1 e37a b1bf
00000760: bf19 d6b2 64d1 85bf f12b e614 b35b b43f
00000770: 7008 1080 597b 6d3f eff4 9df2 bde2 afbf
00000780: 03c8 6a6d ac37 8f3f c662 6b6a 1378 b23f
00000790: 8e26 5124 7beb a4bf b995 e40f 95b9 b23f
000007a0: 623a 06a3 10bf 28bf 5f03 6310 651c 90bf
000007b0: f15f 91a0 7b48 803f 3d4a 9ecc 63ea 903f
000007c0: 794a a2a7 62c5 b1bf fb6c 176d 301d b4bf
000007d0: 1b40 e97f 4fea a0bf 68f9 16bc 872f 963f
000007e0: aefd a59d fe38 9dbf 297d 5f68 f119 903f
000007f0: d7c1 3703 04c1 b0bf e977 9a5a 2381 acbf

b0 f8 [128]
0.002481088705436328 -0.005867129659700332 -0.00011872644938776746 -0.00643229395305959 -0.007349876606170858 -0.0021756628398422457 7.621041899941673e-06 0.006483344053853867
0.001458863865859051 -0.0014106182380189348 -0.0020442531817951343 0.015031925686600603 0.00423901052608668 8.939533764068212e-05 0.001618438338881946 8.194353236276215e-05
-0.0006764864734862684 0.007094402993153021 0.01073685991490848 -6.956477949713376e-05 -9.210455759984225e-05 -0.0004387842240566857 -0.0002614697017909297 -0.0024211147601108634
0.0075126125776017886 -9.43882009396787e-06 -0.0016555188297342714 0.013787540149620489 -0.011624074907381933 -0.003047093627649649 0.00014983567508302308 0.005601235380124041
0.0 -0.0010861252421937705 -0.0011364606950719448 -5.135866317065238e-05 0.007924094779170552 0.0027553574236183686 0.0004977966120391815 -0.007190957517186465
-0.002973799616888263 0.01368586681871905 0.0019864816337802184 0.0035295630945355334 -0.0003559228472284109 0.009328149914232184 0.002804059180325004 0.007863347877093196
-0.0010536069378960147 -0.00038828289279801867 2.060168682991321e-05 0.0022145926084624237 0.000494031505293708 0.019347073286411342 -0.002997248731696397 -0.008387675163964025
0.010808548442406928 -0.006260493409164749 -0.0025205124656342247 0.003368754950454348 -0.004157670280584749 -0.00042351385474549187 -0.0016013267496459804 -0.0013485775355772422
-0.0003287673830584076 0.0016426296129569038 0.001289369298896362 -0.001187904902578424 9.958506925629759e-05 0.0001326659963966007 0.006562121837145538 -0.002059783518424219
-0.006116502818211716 0.00500458666539085 0.002436431938954845 0.002995848827030763 -7.317518388956104e-05 -1.1940022670171263e-05 -0.0029115727791963657 -0.004357477649518135
-0.0015076472309293897 -0.00016671041356062645 -0.00040799114415853886 0.004276932557188805 -0.007438691280006221 -0.001060323016746793 0.0005912139424494635 -0.004013973313525453
0.00021870195954342445 -0.0001400616412116999 3.671843739561052e-05 0.008346545422187074 -0.0009224340340910407 -0.0008021078018497114 0.007103053925500046 -0.0038962259870838887
0.003604282681518298 -0.00012011624406876532 -0.00012489341096733368 -0.003338085146171093 -0.004531200169308629 0.00037156573694302345 -0.0089465084452985 -0.0002912226085356561
-2.4708794133275037e-05 3.762825845922174e-05 -0.0010557243893446545 -0.00040723931211758205 0.011563700487744874 -0.001961112345889717 0.001117020373241208 -0.000387600119876558
3.7181650881923745e-05 -0.0006154974412824929 0.002250217854917778 0.003396441397821324 -0.001900828044510769 0.004921784079413235 -0.002839462098361087 0.00025643358841796445
4.589753207593635e-05 0.0010087570116534249 0.003123871407678172 0.0041574425956206786 0.007479345671238408 -0.0034206551195436787 -0.0006146981632811644 1.4609883679513028e-06
00000000: 6378 255b 3853 643f cd28 28a0 2108 78bf
00000010: 6271 81de 981f 1fbf aa98 aac2 bf58 7abf
00000020: 3442 737a e71a 7ebf bfda d017 b2d2 61bf
00000030: 4f02 d30b 08f7 df3e ff5a e16a 478e 7a3f
00000040: 6aac f625 ebe6 573f 6780 c3cc 8f1c 57bf
00000050: 090f f011 1cbf 60bf bb41 c2e9 0ec9 8e3f
00000060: 9527 3bb9 ec5c 713f 15cf d134 386f 173f
00000070: 6d1b 1cef 3884 5a3f e696 9d2a 237b 153f
00000080: 84cf d0a3 c72a 46bf 149c 714d 050f 7d3f
00000090: 86f3 91f1 34fd 853f c059 c3cf 693c 12bf
000000a0: 8871 3540 0825 18bf df5b 6fe4 93c1 3cbf
000000b0: e424 6ed1 bb22 31bf fc80 dd16 72d5 63bf
000000c0: 51ca 4095 8bc5 7e3f 8e05 448e 6dcb e3be
000000d0: 6be0 d2ce bf1f 5bbf 4b7d 4750 a43c 8c3f
000000e0: 0172 96ec 5cce 87bf f2bb 50ef 37f6 68bf
000000f0: b4d6 04a6 a6a3 233f 12b5 652c 52f1 763f
00000100: 0000 0000 0000 0000 38d6 4019 8acb 51bf
00000110: e77c 2f61 a99e 52bf 66cc be3a 3eed 0abf
00000120: 7f60 6aff 813a 803f 6e50 be40 6792 663f
00000130: a02f 9a15 d24f 403f 08d6 cff5 4374 7dbf
00000140: 0339 2e83 825c 68bf ad00 3bf3 5507 8c3f
00000150: da8d d634 f445 603f c425 edc1 07ea 6c3f
00000160: 4768 1efd 6453 37bf 18b0 8216 a31a 833f
00000170: 03a9 37cf 89f8 663f c0e4 c0af a81a 803f
00000180: d89d d4d5 2543 51bf ec77 7f53 4e72 39bf
00000190: 9a66 8a23 399a f53e a751 795a 5624 623f
000001a0: 3b70 4794 3c30 403f f35f 271c b8cf 933f
000001b0: 2cc9 faa8 af8d 68bf 934a 26b4 8e2d 81bf
000001c0: e673 9ed0 ca22 863f cfdd 2f67 9aa4 79bf
000001d0: f869 7dd3 e5a5 64bf 6ee1 e48a ca98 6b3f
000001e0: dc62 1f1e a207 71bf a220 d127 62c1 3bbf
000001f0: 2eb0 4681 733c 5abf 8fc7 541a 5818 56bf
00000200: ae96 8128 cd8b 35bf d1d1 e41d b0e9 5a3f
00000210: 7492 28be 0120 553f 1aef 442d 6f76 53bf
00000220: eb94 6676 0a1b 1a3f ed0e 4c3b 8863 213f
00000230: 7130 ed2a e2e0 7a3f 67ae 26db addf 60bf
00000240: df2c 1f39 9e0d 79bf 96f5 ec80 b07f 743f
00000250: 3b4d e56f 91f5 633f 2a24 8c17 c08a 683f
00000260: db72 3416 b42e 13bf 6e5b 6038 400a e9be
00000270: aaf5 babb 02da 67bf 23b5 f67f 25d9 71bf
00000280: 0a6f 3fe3 87b3 58bf 65cd 5c8c dfd9 25bf
00000290: ba2d 089f f4bc 3abf 3f7c 5d57 b084 713f
000002a0: 2dd8 5c7c 0878 7ebf de24 872b 515f 51bf
000002b0: 2afd 1c46 765f 433f 58dc bcc1 f470 70bf
000002c0: d61e 1287 6baa 2c3f 2d3d 3c56 b05b 22bf
000002d0: cc3f f6e6 4340 033f 50a4 fb5c fe17 813f
000002e0: 3272 2b01 f039 4ebf a08a 6e63 9148 4abf
000002f0: 8cea fc84 1718 7d3f 7dbc 2766 faea 6fbf
00000300: 7adf c387 ba86 6d3f 0b4f 275c dd7c 1fbf
00000310: 74b0 2e3b ba5e 20bf 3f16 17d1 7858 6bbf
00000320: 78f7 9ec8 4e8f 72bf e883 40b0 d659 383f
00000330: a9d0 7c09 8c52 82bf b730 5b94 e715 33bf
00000340: 4a64 5367 b7e8 f9be 9fc6 ab1d 61ba 033f
00000350: 1fea 736e 074c 51bf c1f5 f586 57b0 3abf
00000360: eb27 539b b5ae 873f 38c9 752c c010 60bf
00000370: 6dd9 357e 1f4d 523f 384d bbd6 d966 39bf
00000380: 036d e0cb 6f7e 033f a13a c7b0 2a2b 44bf
00000390: 495c 1083 0c6f 623f afdb 3e97 dad2 6b3f
000003a0: 5ae8 5592 a624 5fbf 7c7b 8b5a dd28 743f
000003b0: 47df 389b c842 67bf c8c6 37e0 3dce 303f
000003c0: c734 a131 4310 083f f576 fa97 0887 503f
000003d0: 8669 0db1 3b97 693f 8423 bbff 6407 713f
000003e0: 6dec da90 a9a2 7e3f c897 d13b a205 6cbf
000003f0: 0bd3 0c41 7624 44bf 49f8 d7b2 e582 b83e

W1 f8 [128, 64]
-0.013352248964623156 -0.041328785421961306 0.11313984500685224 -0.12334439726734414 -0.13209711273703384 0.06613146172927445 0.15461165232662227 -0.11912768349615561
0.04613755232104248 0.041687340627045974 0.09614144423199075 -0.08804964978610845 -0.020742411419901893 0.07439349722460649 -0.013439142713881217 0.0979436051171496
0.047544694762610605 0.05857874965060987 0.1725372303248518 0.07495915440983862 -0.11126948681458944 0.07448465480896592 0.06788953891524416 0.018846710886271618
-0.0686608446383653 0.05964301870912755 -0.06143546978397736 0.1018741502395678 0.10563111981855869 0.09433032122412124 0.10052691223953984 0.08974415912998764
0.006048075779783498 0.09810168804069988 -0.008600152999957873 -0.09539160175535978 0.1771772821980526 -0.029470096640437284 0.1750678729419437 0.09898503774821388
-0.06528303229771461 -0.018473398777775946 -0.009696591940614396 -0.07171345407324821 0.08048173816583057 -0.09779188303837734 -0.013090345043974525 0.0007502776845193423
0.05527976056640124 0.011995844519873367 -0.1139389426319406 -0.14988948171488342 -0.03822386505321438 -0.13807799243387162 0.02962436819002427 -0.1175159879839986
0.042257814146217335 -0.17588808813818413 -0.03700069379936242 0.021565823325787593 0.01913224203815488 0.061150503825939916 0.14848309674034552 -0.13936681426921574
0.08246111711844262 0.0686427564894854 -0.10378746082326555 -0.003075409473818355 -0.14813016499075246 0.07630438915187716 0.00341404541674632 0.10271201178125665
0.14293207209153327 -0.1025276280830282 -0.11105086824037434 -0.05818706492435223 0.19756900037769445 -0.16276375583572414 0.08041036480813907 -0.025021825837237492
0.01992029900370224 -0.09778916761419094 0.15473685466463458 0.14180526083548078 -0.10956410771424165 -0.05745922223867122 0.1150267928435371 -0.10946326194986912
-0.10970691468660256 0.06889337911131889 0.09001836396749113 0.05944651673865231 -0.046209866317328735 0.07533612785935731 -0.030311404162119717 -0.11695758784353892
0.10543077087220175 0.020672094606981124 0.168214903177286 0.023573715314930858 0.16304488283806032 -0.15792843928625588 0.016062519748309124 0.09743763472762672
0.004756771401092932 0.1140096990985639 -0.03903730790645526 -0.02489303945911322 0.1738326744263255 -0.14080392948671888 -0.0786806023958106 -0.11625159315348185
-0.0013736646882702192 -0.006831682517637348 0.153286385084659 -0.08368569144507255 -0.07227584445200928 -0.026883806768715605 0.173860596846128 -0.1363113636321093
0.15034730960908807 -0.10940078718283269 -0.04936095096746878 -0.08946700235544343 0.07097992281573921 0.15954283071904582 0.11998710758481541 -0.13011253238065879
-0.1428039157700584 -0.15388606309964606 0.09506649223617662 0.03194732934553357 -0.06214701065632235 -0.06891434185108289 0.16775774844915278 0.030445636206528702
-0.07052447833412404 -0.12447113393167275 -0.05873009253550062 -0.11104225002999521 -0.17390791005469078 -0.15848113600105315 -0.11825830414808176 0.13954254031419136
-0.16830855122729893 0.028429238844597814 0.009178493163700039 -0.0038478055028623374 0.03415824367951658 0.09933899231951367 0.07437888684226053 -0.019333647395336932
-0.1346761726780687 0.001401837399628183 -0.09690300417700949 0.1513495599800739 -0.11321275593151979 -0.14411456585584778 -0.05272633919422212 -0.04495543122176731
-0.03773679975067598 0.16634654986183697 0.1576611465312957 -0.012523454060877454 -0.15140813429835623 -0.012050861373067117 0.00031291035500553307 -0.010430177178099572
0.14056006801339618 0.12425410282015752 0.005327036660274942 0.04999444737706907 0.1250245769911954 -0.17479871132930858 0.16294482318021813 0.1382619607232273
0.04313290154075899 -0.06943998493648587 -0.1443427039182279 0.14291131526875042 -0.04173837461058533 0.044093814948383284 -0.06621927143643346 -0.12369943436358546
-0.1046200963838125 -0.17659819293624018 0.026967242708177033 0.0934854621347222 0.014210391042763934 0.08300790230509127 -0.016113297870776033 -0.14928849137700198
0.09035908010693196 -0.16584710631606542 -0.16309747107972594 -0.10038857055521509 -0.07428392150621804 0.15431751165016053 0.13751331825942578 0.11323714639641314
-0.1396103925410152 -0.15609602412237067 -0.10603347014046072 -0.0785304045488992 0.16512115397214885 0.004616937419041831 -0.027915595190286382 -0.04973037918678977
-0.11833785739542675 -0.10568416337447112 0.0679604349985534 -0.17075378400252306 -0.08972033237206062 0.10064050096327763 -0.15626801860725129 -0.151553917085675
-0.08133373318730745 -0.0666733056565967 -0.08421847008859122 -0.10249850113570891 0.12520579974384488 0.09966326826165571 -0.00551504576938676 -0.1391976387857255
0.11536114744308917 -0.011069408672553608 0.002274996854201814 0.08973203924515784 0.08539938072703283 0.1658500549043667 0.006524300896172663 0.08305409352685472
0.06011887735993639 -0.13589126746559999 0.1111699693960926 0.16954461545078095 -0.11200086153654823 -0.13691328556254156 0.13456336992592063 -0.007934085134785423
-0.16723555651255606 0.002852834579120254 0.1445858727220593 -0.021337937992593134 -0.013372116239998412 -0.07905558257147727 0.07068778809103576 -0.004726601292193764
0.09305444202932096 0.060959218769644545 -0.13879415268024203 0.02017207640306834 -0.10844000295630075 -0.030317992074705605 -0.1069977003749346 0.050581885488553566
00000000: 7881 0c85 6c58 8bbf 849c 8aeb 0b29 a5bf
00000010: f7ce 2d9e bbf6 bc3f 9877 6898 7f93 bfbf
00000020: c000 8de5 8ee8 c0bf 2a29 5dd1 fded b03f
00000030: 0664 298b 50ca c33f cd0a aae0 267f bebf
00000040: 3638 ac5c 579f a73f e6fd 4c09 0b58 a53f
00000050: 6e40 c4c6 b99c b83f 4b6e 41fe 6b8a b6bf
00000060: ec2e c1aa 7f3d 95bf 5d60 9dc5 730b b33f
00000070: 2f07 8a33 fb85 8bbf 5f9b d404 d512 b93f
00000080: 231a 353a c757 a83f 86d9 faab 08fe ad3f
00000090: 6038 cb30 b315 c63f cbdf b9ec 8530 b33f
000000a0: 354f e936 287c bcbf ef56 7524 6d11 b33f
000000b0: 86a9 6175 3561 b13f 1527 935b 8d4c 933f
000000c0: d8cd 3cd2 c193 b1bf cbb1 949d 8789 ae3f
000000d0: 7aba 124b 7874 afbf 3834 969f 6c14 ba3f
000000e0: 5281 0f1d a40a bb3f 3ac4 ad2c 0826 b83f
000000f0: a3ca 6fb8 21bc b93f ad66 7824 79f9 b63f
00000100: 7cad d8fa ddc5 783f 0a34 d135 311d b93f
00000110: c4d9 00ff f49c 81bf 1132 da81 956b b8bf
00000120: 1741 51c4 bead c63f 775f 1fb5 682d 9ebf
00000130: d8d6 6ec2 9f68 c63f e801 ec5b 1557 b93f
00000140: 39d0 b388 63b6 b0bf 95d4 62ce b0ea 92bf
00000150: 6009 248a cedb 83bf 3d84 ed1b d05b b2bf
00000160: 46f4 5881 739a b43f 75ce 768b e308 b9bf
00000170: 7299 db5e 1ccf 8abf ab4d 180f c995 483f
00000180: dcdc 86f7 a04d ac3f 0dc0 34ff 4691 883f
00000190: 4052 5840 1a2b bdbf 8e6a fd1a 942f c3bf
000001a0: 8d19 a914 1492 a3bf 1381 e626 8aac c1bf
000001b0: ebcb 29b2 d955 9e3f bcfd 251d 8715 bebf
000001c0: 8253 84f3 d0a2 a53f 989c 2739 8083 c6bf
000001d0: 4d5b 9843 c1f1 a2bf bd10 95e7 5915 963f
000001e0: 1d81 6907 6797 933f a3f6 216c 1e4f af3f
000001f0: 6b19 417e 7e01 c33f e98c b792 c5d6 c1bf
00000200: 5020 37f9 2b1c b53f 22c9 3a5a 9292 b13f
00000210: cb86 f8a5 d091 babf 1358 94e3 9931 69bf
00000220: d7da 17e3 edf5 c2bf 75d5 f237 af88 b33f
00000230: 5af9 2ead c5f7 6b3f d7c1 819b 554b ba3f
00000240: 1161 971f 994b c23f 2a95 8d29 403f babf
00000250: 7fe9 4867 d46d bcbf f2f6 cce9 b1ca adbf
00000260: 91ad a9e5 f049 c93f adef 2458 71d5 c4bf
00000270: 4c42 1c0f c695 b43f 0eea a04e 529f 99bf
00000280: 9161 fda2 fc65 943f d556 cefc b508 b9bf
00000290: 17a0 22d1 6ace c33f ba35 d8be ac26 c23f
000002a0: f9b5 72b3 640c bcbf c7c4 bc90 4b6b adbf
000002b0: 0f40 6d59 6572 bd3f d92b 30ca c805 bcbf
000002c0: 6159 b99a c015 bcbf e1ac 311a ffa2 b13f
000002d0: eca0 4789 710b b73f 90db 811a c66f ae3f
000002e0: 44c1 2bd1 d1a8 a7bf 9afb 5c7d 3a49 b33f
000002f0: b7df 49e6 f309 9fbf 9f9a ceb6 eef0 bdbf
00000300: 7f5f e3d0 82fd ba3f f571 1bc9 102b 953f
00000310: ea51 ece1 1088 c53f 3197 4a41 b523 983f
00000320: 55e9 c89b a7de c43f 90e0 ebc4 ff36 c4bf
00000330: 0d97 0a74 b172 903f 2304 8e3e acf1 b83f
00000340: c3c8 a219 d67b 733f 2c1d 0e59 bd2f bd3f
00000350: 6770 90b1 b2fc a3bf 56ed 7f99 8f7d 99bf
00000360: 8292 d129 2640 c63f 8699 25f8 dc05 c2bf
00000370: 2c9d 1e76 6924 b4bf f6bc b316 aac2 bdbf
00000380: 12c7 5a3a 9181 56bf 18a9 d6cf 89fb 7bbf
00000390: 852a 6e65 e39e c33f f154 e6eb 6c6c b5bf
000003a0: 4f50 3674 ab80 b2bf 0158 74bb 6d87 9bbf
000003b0: 5132 c264 1041 c63f ddc0 6f98 a672 c1bf
000003c0: ed03 e8a4 943e c33f 445f 1ba3 b001 bcbf
000003d0: 37a0 35ac d645 a9bf a512 3039 4fe7 b6bf
000003e0: 5b8c 2a7f bd2b b23f c7f1 1f44 e66b c43f
000003f0: e5b6 049f 79b7 be3f 34f5 af07 87a7 c0bf
00000400: d68f fc11 6647 c2bf b55d 29dc 89b2 c3bf
00000410: 938d 1913 4756 b83f 709b 777d 665b a03f
00000420: 734a a0a4 bbd1 afbf becb 79cc 5ea4 b1bf
00000430: afae 9efd 1579 c53f 1677 400f 242d 9f3f
00000440: ba34 0368 e40d b2bf 8856 8819 57dd bfbf
00000450: 6b49 76e5 de11 aebf be63 5ad0 436d bcbf
00000460: 79ad 1949 9d42 c6bf 5f27 1420 1c49 c4bf
00000470: fde2 cb1c 2d46 bebf 656d 86ab 87dc c13f
00000480: 1c46 9475 228b c5bf 63d3 59ec 8d1c 9d3f
00000490: 129b b77f 2ccc 823f ef29 7ad9 6e85 6fbf
000004a0: af11 fc76 307d a13f 25db 3abb 476e b93f
000004b0: cd19 80a6 7e0a b33f fef9 191d 33cc 93bf
000004c0: d6f3 999e 113d c1bf 0a1e 4972 bbf7 563f
000004d0: 590c d3a1 a2ce b8bf ab6f 3021 6c5f c33f
000004e0: b745 37dc 82fb bcbf 8732 9d99 5872 c2bf
000004f0: a437 f45c f2fe aabf e708 c0f5 6504 a7bf
00000500: 6cd8 91e1 3c52 a3bf 45c1 baff d74a c53f
00000510: e4d3 198e 3d2e c43f 9dd3 fe8c e5a5 89bf
00000520: d974 947c 5761 c3bf 493b e33b 1fae 88bf
00000530: 9db4 c7bd c381 343f beac f8ae 6a5c 85bf
00000540: 75db 9e4f dffd c13f 4ba3 01ec 1dcf bf3f
00000550: 33fb d883 cdd1 753f 44a5 ee48 df98 a93f
00000560: 2ccc af2a ce00 c03f e86a 45de cd5f c6bf
00000570: ee46 4e3f 60db c43f 0526 cb63 91b2 c13f
00000580: 4f90 ff02 8415 a63f aa41 56a0 d1c6 b1bf
00000590: 285c 5f5c d279 c2bf 5f60 a700 eb4a c23f
000005a0: 489e e173 bb5e a5bf 5280 51ea 7693 a63f
000005b0: b736 2f05 bff3 b0bf 8a13 2021 c4aa bfbf
000005c0: 360c 79f4 61c8 babf 12d0 9803 c59a c6bf
000005d0: f4ca fa05 4d9d 9b3f d823 85ca a9ee b73f
000005e0: 581a 5666 561a 8d3f f9bd b581 0140 b53f
000005f0: 30f2 8a1d 0180 90bf 4d13 11a2 e21b c3bf
00000600: f9b6 f4cd c521 b73f 1ac2 e15c 7a3a c5bf
00000610: 6082 2cc0 60e0 c4bf 3745 6dbb 10b3 b9bf
00000620: ece2 7c65 4504 b3bf a967 de1c adc0 c33f
00000630: 7326 5852 099a c13f 8807 7710 1cfd bc3f
00000640: e69b 12db c0de c1bf 2413 525b f4fa c3bf
00000650: 38e0 886e 0225 bbbf cc77 478f 911a b4bf
00000660: 9f15 18a2 b022 c53f b135 8fb3 35e9 723f
00000670: d707 90e1 e795 9cbf 7c2b 73a0 4276 a9bf
00000680: ad5e 64cb 634b bebf 6c02 6609 1e0e bbbf
00000690: df9f bde5 da65 b13f 48c3 fa8e 42db c5bf
000006a0: 1402 5365 e9f7 b6bf 5353 4a6c 93c3 b93f
000006b0: 3518 aa26 9700 c4bf 8859 bb66 1e66 c3bf
000006c0: 13e0 199c 49d2 b4bf 01b1 4f73 8011 b1bf
000006d0: 4be9 bf76 578f b5bf d052 447e 573d babf
000006e0: e6ac 955f be06 c03f 67d9 cb2d 8883 b93f
000006f0: 7185 72d3 f196 76bf 32ef 216d 3ad1 c1bf
00000700: 1442 7fe3 4e88 bd3f 159e e0e1 8eab 86bf
00000710: ae28 cba2 03a3 623f 791a f6cd adf8 b63f
00000720: 033e 52db bbdc b53f d151 ed18 933a c53f
00000730: 3338 a7af 39b9 7a3f 142c 7f77 0843 b53f
00000740: c22d 44c8 e6c7 ae3f a4d2 c992 e264 c1bf
00000750: 8181 da96 a275 bc3f d978 4951 a3b3 c53f
00000760: 525d 6ca5 16ac bcbf e483 f0e1 5f86 c1bf
00000770: f322 895c 5f39 c13f b6b0 6be1 be3f 80bf
00000780: a892 f986 f967 c5bf 49a7 fbe6 d35e 673f
00000790: c205 6735 ca81 c23f 4c7a 5ec7 9cd9 95bf
000007a0: e7cd 6e0f d762 8bbf e8f1 b595 fc3c b4bf
000007b0: 14dc 134a 9818 b23f be0c 8a5f 335c 73bf
000007c0: 3572 4379 6ad2 b73f f7ba 02f6 0b36 af3f
000007d0: 2e9f 51bd 01c4 c1bf f03c c621 fda7 943f
000007e0: 3984 465a b9c2 bbbf 74d6 c301 ae0b 9fbf
000007f0: 7788 db87 3364 bbbf 5eff e26f dee5 a93f

b1 f8 [64]
-0.01621265681829797 -0.00049690409517042 0.0004995999916489758 -0.0002384314145840248 -0.0009875708013484088 0.0038618550896774915 0.0053829419449859285 0.0009326065771859656
-0.000691522020711066 0.008188526331167909 -0.006517764652887974 0.0 -0.0035599637063964294 -0.00028836222119356023 0.005116478660395036 0.0004780388729659731
0.0028463657722238725 -0.0005229108188866245 -0.00016024699268335152 -0.0005651270032411041 0.00229052970025452 -0.0012800222560734264 -0.006506186107075202 0.008245842129509651
0.0005943134946364882 -0.0018638380303784329 0.0003193401810280019 0.010715158045231798 -0.0007557193598083901 -0.006607573855236028 -0.00011010517286498894 0.0017476422810186556
0.024295900125547557 -0.0032580687327164294 5.476185463126773e-05 -0.0056135169108887184 0.010914881767489745 0.0011451625813552406 0.007297781777377605 -0.0033303872637306404
-0.00010044115664374834 0.000994709447378015 -0.005810734651251489 -0.00019594682275412382 -0.007023104081236246 -2.2067367491112357e-05 -0.0011281988475330058 -8.37805827980664e-06
0.005946349726287697 0.001567897659871927 -0.017180535329197347 -0.006943445813392988 -2.979695408101022e-05 0.009941833241049738 -0.007781922921369667 0.01383276203275102
-0.00781653316420954 -0.006905982928833615 0.02270444411076651 -0.005179123166868104 -0.004834037882375733 0.0025596661453166332 0.0004292726767323858 -9.053135498488669e-05
00000000: 1e71 43fb 0c9a 90bf 04c3 436b 5548 40bf
00000010: 0b05 07d0 f25e 403f 1941 8641 6e40 2fbf
00000020: b46a d512 2c2e 50bf cf5c fca9 e5a2 6f3f
00000030: a47b c279 6c0c 763f e8cf e05f 458f 4e3f
00000040: cb46 513b e8a8 46bf a5c0 5b66 25c5 803f
00000050: df52 6f20 5fb2 7abf 0000 0000 0000 0000
00000060: e696 34f6 c829 6dbf beb0 364f eae5 32bf
00000070: 2ef4 4548 04f5 743f b1e2 5a53 2954 3f3f
00000080: 22d7 eefc 4251 673f 6dee d36e 7e22 41bf
00000090: 81ff 8a2f ff00 25bf 22ed 9dff a084 42bf
000000a0: 9f46 e6c4 96c3 623f e658 976e cdf8 54bf
000000b0: fa42 d308 3ba6 7abf cd9b 3132 32e3 803f
000000c0: 2ad1 f282 7679 433f 144d acd8 8089 5ebf
000000d0: 2da2 41a2 a3ed 343f f384 012b d4f1 853f
000000e0: e2ed b8f7 6ec3 48bf 0288 d319 8b10 7bbf
000000f0: 0295 5f77 08dd 1cbf 2a12 4b9c 24a2 5c3f
00000100: b14b dd41 06e1 983f 5ae2 f654 aab0 6abf
00000110: 50bf 67ff 02b6 0c3f 69d4 c3f8 32fe 76bf
00000120: eb3d d9a1 8a5a 863f 6338 79f5 28c3 523f
00000130: fa2c 1361 47e4 7d3f 8401 2f0c 5448 6bbf
00000140: 965c 8cee 7d54 1abf 29a6 e922 1d4c 503f
00000150: 098d af34 ffcc 77bf f37c 1664 e2ae 29bf
00000160: c467 8625 42c4 7cbf 7b05 6af2 a923 f7be
00000170: df95 d349 027c 52bf 0c0d e68f ef91 e1be
00000180: ec03 ae19 335b 783f 2249 0c4b 3db0 593f
00000190: b479 7735 c697 91bf e487 0a0b bb70 7cbf
000001a0: 6f03 c017 8f3e ffbe 9b8d 0f45 625c 843f
000001b0: 5b0a 2807 f0df 7fbf 1f25 5ae4 5954 8c3f
000001c0: 9b8f 7752 1d02 80bf 139a 37ad 7249 7cbf
000001d0: 94e9 b773 d53f 973f 197d fa49 b436 75bf
000001e0: 3682 cc29 dbcc 73bf ba01 404c 02f8 643f
000001f0: eec4 8d1b 0022 3c3f 09d2 efd5 74bb 17bf

W2 f8 [64, 10]
0.37832354776334837 -0.26142992595135783 8.766125709755902e-06 -0.08826908354154586 -0.1976821076496287 -0.03590088700656506 0.15032595566548804 -0.23473719092816858
0.2706856119015536 -0.02231522492603363 -0.021217004068840035 0.1364644484170546 0.14630611321898884 0.03163393379086187 -0.23136585608162727 -0.008606630461008697
-0.04350874412772388 -0.09360199346036008 0.28008428539134916 -0.16514274045754965 0.22522490187752864 0.12848527656132072 -0.1626793512763982 0.05718434492209621
0.15687393486637755 -0.2231560721237814 0.28256992749906107 0.1913124125152664 0.0182684058727835 -0.07284560677521555 -0.05282532855352213 0.06589115388204415
0.11845497726185417 0.04004598798137004 -0.08634722441287028 -0.04277300787707875 0.029617423398498398 0.19103144481374754 0.012912613399899173 -0.03300518446595743
-0.10513242173878057 -0.006910652888513043 -0.29762322817854303 0.23792791424366047 -0.2124301502470796 0.04658115053825095 0.061236914202054044 0.0933528105494913
0.10571521941321688 0.12881109519810127 0.1594399974654122 0.23684980748762183 0.1663802875010239 -0.21147790857334928 -0.06785354160584395 -0.04044720694710542
0.10504639935701247 -0.12738089950256198 -0.05976205089199867 -0.06543455330817254 -0.14547235199923503 -0.04272331194498142 0.14356474297722496 -0.03672241323135454
-0.04203833821721442 0.16982525845488855 0.011597928787801434 -0.0851141515783233 -0.3023854992758293 -0.126757936202155 0.1119699301743697 0.13571308927874245
-0.17790082256115244 0.0897526947823946 0.25128818120459334 -0.08091934134159519 -0.13645500420427129 0.26844253528270345 0.1138030284986178 0.14577695131225918
-0.10099694195582044 -0.15443737268580282 -0.026827805208645618 0.05372984443092355 0.20116427709238244 -0.10025749333589044 0.17334555438638788 0.0617606651891271
0.08590904735420485 0.19453449505310455 -0.16363918578914735 0.27645721786369565 -0.05320281906670807 -0.05685380148407434 -0.23199170408927702 -0.2784633268480807
0.1537271693984363 -0.26472505134442936 -0.1454209989584103 -0.16663507483409826 -0.016103007626946657 0.10900065383636143 -0.27235875036274043 -0.027761354962612755
-0.20286312680172983 -0.1795515221927171 0.1250421734903272 0.06560158193626003 0.24927847997544966 -0.03127253032392902 -0.0889621901147763 0.27167882192664383
-0.11586826655485088 0.1539109862174599 -0.2624430518759616 0.19879278090019703 -0.07032586667783394 0.0573513226505134 -0.21621743675254193 -0.21832401853542388
0.24452621845693648 -0.2926846885342973 0.07610423072860671 0.0446381752833151 -0.24005300744240998 -0.17233760183149335 -0.07233092360278806 0.005776030294095212
0.06403992359092274 -0.08958089112030052 -0.10949593619925696 0.2673499735082712 0.15069443125480855 0.22609945143912288 0.04524157940575281 0.14525441756569277
0.1483296100457781 -0.12633979034601012 0.09648816927072819 0.19971198414620464 -0.03416127601816794 -0.11516940212548318 0.11870859659827226 -0.009836290877880271
0.2887594302054711 -0.09672901034618098 -0.23735757223266865 0.02668770501197832 -0.12880574213934048 0.16358385922287041 -0.015976189634459726 -0.31712208346455534
-0.20583253385314842 0.07392293734519348 -0.05413790594583994 0.26601397141889804 0.07337267897598514 -0.15095274805782952 -0.0806079421938459 -0.2655778305152806
-0.06915254358598563 0.04461341028451635 -0.2897040694731944 -0.2773846843764518 -0.06070323648637845 -0.12512565385564525 -0.05905101350578306 -0.09349679445272925
-0.08325314874398144 -0.24208313280647292 -0.20302721723650355 -0.012992073445355539 0.1627867065572749 0.017468995967293625 0.1966593197309059 0.1970897361344091
0.2070900317559319 0.14053522548816932 -0.13464932578355643 0.2252715920321264 -0.22421475766615107 -0.02653044521997128 -0.04171679965461601 -0.20238753533244164
-0.1209261028587332 0.27423111581378934 -0.1168807091078081 0.21644967626198053 -0.091800168521294 0.08129674683974673 -0.02919718426121276 0.0397801034269569
-0.14951677560528465 -0.10831222182198486 -0.19608598147432568 0.13654352871329756 0.1785148176282645 0.07217741554767688 0.03119180208049109 0.2508934722480832
0.04190440204882437 -0.09426312013113747 0.22784266161467318 -0.05448484088333573 0.16379673433029882 -0.271586123400314 0.031977369584222086 -0.2071569565976848
-0.10251807817929615 0.24348542133790665 0.27826919296877606 0.2581593898339456 0.11781397285367767 0.05447407745959091 -0.11171532884128117 -0.11573492293903472
-0.16830422212023669 -0.16796265715016806 0.17415077095522452 -0.0712129517210564 0.32550199239753064 -0.26849760751495777 0.28020305414494123 0.03460226749476347
-0.12250975844402885 -0.004296940084634986 0.08208740541650314 -0.06752708838754817 0.020324237571462563 -0.005633408984696733 0.21680347857296775 0.31204283536818217
-0.27801970578034557 0.24643517851571567 0.23154307461798038 -0.24933893853258204 -0.21636313191431558 0.28182553646216646 -0.26872688472434053 -0.09492236324505512
0.23276541854463978 0.11723230981284308 0.11397521290245649 -0.12619673984641805 -0.2118050800243655 -0.14848460234172073 -0.012263234132382039 -0.12157222637956826
-0.1791432729014875 -0.11331758369456796 0.1430516467120516 0.10334182769201682 0.29020903861995123 0.17083498322057286 -0.07052751161982766 0.23730276591301125
00000000: 4fd1 3cf8 7336 d83f be08 8a95 44bb d0bf
00000010: 14e1 bf24 4762 e23e 920f 0f7b cd98 b6bf
00000020: 5104 aeb5 a54d c9bf 9661 2edf 9961 a2bf
00000030: 2d5f a983 e13d c33f 887f 1847 de0b cebf
00000040: de5a a7be e952 d13f 7771 0a65 cdd9 96bf
00000050: 920a 610a e9b9 95bf 7b4b 82c3 aa77 c13f
00000060: be7e bda1 28ba c23f 8fb2 26ae 5232 a03f
00000070: 830c a478 659d cdbf 2acd de62 5aa0 81bf
00000080: f1b9 3c32 c746 a6bf d4ad c0dc 4cf6 b7bf
00000090: af47 78a3 e6ec d13f 59ef b7b6 6523 c5bf
000000a0: 9486 e769 2bd4 cc3f f997 6c9e 3472 c03f
000000b0: 68ba bb4e add2 c4bf 4d32 9136 4447 ad3f
000000c0: 4b47 ecf1 7114 c43f 6c75 d6cf 6090 ccbf
000000d0: 7e42 5c2d a015 d23f 0335 89d5 ec7c c83f
000000e0: 303a 18f7 f3b4 923f 67bf c17a 02a6 b2bf
000000f0: c95e 13e5 eb0b abbf a1e2 041f 3ede b03f
00000100: b059 63bd 1053 be3f af96 6e61 e880 a43f
00000110: 7322 f408 da1a b6bf e59a f7fb 57e6 a5bf
00000120: e6a7 8da3 0754 9e3f 47c8 fde7 b773 c83f
00000130: 9852 11a2 ed71 8a3f 8c6c c237 0ee6 a0bf
00000140: 200a 1e59 f5e9 babf 2f1a 6742 584e 7cbf
00000150: 6aa2 e34b 420c d3bf a5b2 3d01 6c74 ce3f
00000160: f16e ff41 e930 cbbf 7ffb 570c 7cd9 a73f
00000170: 348f 9cdf 715a af3f 58bc 4c44 f8e5 b73f
00000180: 1cb9 1112 2710 bb3f d36f 9ec8 e17c c03f
00000190: fae5 64a3 8768 c43f db92 9c30 1851 ce3f
000001a0: 7a0b c202 f34b c53f dd12 9346 b511 cbbf
000001b0: 7468 1d86 d95e b1bf 2acf 1a0e 7fb5 a4bf
000001c0: 5b09 cd21 52e4 ba3f 06d1 bf6e 044e c0bf
000001d0: bbfc 3eac 2199 aebf 0baa 7ca2 51c0 b0bf
000001e0: 848a 2789 d69e c2bf 7937 2977 d4df a5bf
000001f0: db10 f959 5460 c23f 36bd b7b7 47cd a2bf
00000200: 386a a48f 0c86 a5bf 729b 8c85 d5bc c53f
00000210: 0b72 c2a6 a7c0 873f cca7 7481 0aca b5bf
00000220: 0928 8bb5 485a d3bf 3394 3fa3 9a39 c0bf
00000230: 7dfc 3bb4 0faa bc3f 9bb0 0be8 0b5f c13f
00000240: 7773 6a43 74c5 c6bf 2379 d158 08fa b63f
00000250: 8148 0906 1b15 d03f 210f ad44 21b7 b4bf
00000260: dd68 378a 5b77 c1bf 1a40 7999 292e d13f
00000270: 915a 96fd 3122 bd3f 4bc8 32b3 d1a8 c23f
00000280: 093e b282 efda b9bf a09b 7b94 9ac4 c3bf
00000290: 2a76 fa87 bf78 9bbf c1ca 4c69 7a82 ab3f
000002a0: 261d 9e43 c0bf c93f 837c 0e9f 79aa b9bf
000002b0: 248e 7fe7 2f30 c63f 5940 550a 189f af3f
000002c0: 741b d1a4 22fe b53f ea35 199f 81e6 c83f
000002d0: 7b7b a7fb 20f2 c4bf 1fef 5d9d 79b1 d13f
000002e0: cc9d e45f 663d abbf 2b04 0e04 f11b adbf
000002f0: 53dd 0077 e7b1 cdbf d3a9 7cd8 57d2 d1bf
00000300: f755 89f6 54ad c33f 1e33 7d57 41f1 d0bf
00000310: 6fc9 56c1 279d c2bf 1db5 6352 4c54 c5bf
00000320: 4ef9 7f8c 4e7d 90bf 1c44 7883 77e7 bb3f
00000330: ef97 6565 536e d1bf b8d6 a0fe 786d 9cbf
00000340: e1bf 963f 6bf7 c9bf f1e2 e155 8bfb c6bf
00000350: d47f e1c6 6101 c03f fc6a fbe8 43cb b03f
00000360: b6aa 8b73 5be8 cf3f 6946 02fe f302 a0bf
00000370: 9c9d 1fe1 39c6 b6bf 2235 cc91 2f63 d13f
00000380: bc4e 7fef 8aa9 bdbf d048 26ee 5ab3 c33f
00000390: f2a8 37f1 ddcb d0bf c0d8 52b6 0a72 c93f
000003a0: 02b4 7141 e000 b2bf 2825 550e 275d ad3f
000003b0: bdab d651 03ad cbbf a23d c59b 0af2 cbbf
000003c0: 7dbf a497 a24c cf3f 3cdd 528f 58bb d2bf
000003d0: f70c 111e 917b b33f 996a fd9d d0da a63f
000003e0: a4c3 2294 0eba cebf f360 de95 280f c6bf
000003f0: 020b 5d87 4784 b2bf e5e7 6b53 9ba8 773f
00000400: 2b1b 76a1 eb64 b03f 664e b5f5 c5ee b6bf
00000410: 544d 05f9 ec07 bcbf c97c 3310 431c d13f
00000420: 65e0 f682 f449 c33f 9b8b c9aa d3f0 cc3f
00000430: 2227 ef7f e729 a73f a3a7 855e b297 c23f
00000440: 0a68 16f4 76fc c23f 2e1c dcf9 e62b c0bf
00000450: 0dfc 77db 72b3 b83f ed7b 438c 2990 c93f
00000460: 3948 9336 967d a1bf 8efa a0ef bd7b bdbf
00000470: 58c5 24c4 af63 be3f b354 139d 0c25 84bf
00000480: d238 49d5 087b d23f 18e4 0280 3bc3 b8bf
00000490: 2140 19a1 bb61 cebf d24d ed90 0554 9b3f
000004a0: d042 03e1 b47c c0bf 5702 c2de 50f0 c43f
000004b0: 4d92 faef 0f5c 90bf 1b75 546c ba4b d4bf
000004c0: 2211 ad70 b858 cabf 9e65 5216 9dec b23f
000004d0: f7c9 05af f6b7 abbf dc7c e176 5f06 d13f
000004e0: db2b 9f48 8dc8 b23f 8b29 136e 6b52 c3bf
000004f0: ae3a 85db b8a2 b4bf cac4 2628 3aff d0bf
00000500: ee13 2329 fbb3 b1bf 5c22 45a4 91d7 a63f
00000510: 6af3 f9ef 828a d2bf 9cb8 f3b0 abc0 d1bf
00000520: a3d1 f09e 7e14 afbf adad 990f 1e04 c0bf
00000530: d721 9b37 ef3b aebf f58e 74ea 67ef b7bf
00000540: f5f8 240f 1450 b5bf 4e94 2881 94fc cebf
00000550: 1145 1dbd cbfc c9bf a9b4 7094 969b 8abf
00000560: ac8a 71de 31d6 c43f 1172 7e79 64e3 913f
00000570: 1853 59f1 212c c93f 128b 8989 3c3a c93f
00000580: f912 dc18 ed81 ca3f a02e b4ea 0efd c13f
00000590: 0a9c 5569 303c c1bf 9777 3f14 b3d5 cc3f
000005a0: a074 bab5 11b3 ccbf 01bb 450a cc2a 9bbf
000005b0: 4ab4 6b84 e75b a5bf 0a79 afb2 d5e7 c9bf
000005c0: 52d0 0259 03f5 bebf e4cf 7daa 008d d13f
000005d0: 3ebd 26e7 e4eb bdbf 0033 637c 9fb4 cb3f
000005e0: 86f5 9041 3780 b7bf cfa9 f214 ddcf b43f
000005f0: 6016 26de dde5 9dbf 5c24 80c6 0e5e a43f
00000600: f0ca b69e 5d23 c3bf 9886 7b8a 59ba bbbf
00000610: f971 d16e 5819 c9bf 1ceb 2623 427a c13f
00000620: 604b c8d3 92d9 c63f b17d 4917 387a b23f
00000630: 7c26 5b67 bef0 9f3f 3677 857e a30e d03f
00000640: 9c5d b768 7e74 a53f b0a1 2eba a021 b8bf
00000650: 0162 22c6 f229 cd3f 7281 71e3 6fe5 abbf
00000660: 2ff3 9198 4af7 c43f 2f50 83c3 aa61 d1bf
00000670: e715 2779 565f a03f daeb dc80 1e84 cabf
00000680: 9862 07f1 9f3e babf c57b d9c0 872a cf3f
00000690: d240 d296 29cf d13f c07e 1ff6 ae85 d03f
000006a0: c81a 6b78 0e29 be3f a561 56ba 06e4 ab3f
000006b0: e5ce d533 6099 bcbf 5d3a 07cd cda0 bdbf
000006c0: 597f e424 fe8a c5bf ba61 b4e3 cc7f c5bf
000006d0: 4eb6 e98c 924a c63f 6c8d b112 033b b2bf
000006e0: c455 084f 06d5 d43f e62e d596 102f d1bf
000006f0: 81ad 72ca d8ee d13f e0d0 836e 63b7 a13f
00000700: 1d3d f5ad cc5c bfbf 789b 2e12 ab99 71bf
00000710: 6668 ad21 ae03 b53f 88f7 378c 7449 b1bf
00000720: 0f05 be7e e0cf 943f d011 abb5 0e13 77bf
00000730: a7a1 1065 37c0 cb3f 89e0 3683 82f8 d33f
00000740: 8d16 fe29 13cb d1bf b68a 271c 308b cf3f
00000750: dbbc 8c16 34a3 cd3f 1cf3 4e9d 56ea cfbf
00000760: 49e9 d07f c9b1 cbbf 1c17 92f9 6d09 d23f
00000770: b99b 5c3f d232 d1bf 52ea cbfd d44c b8bf
00000780: 4afd 24da 41cb cd3f 6a42 aec8 ef02 be3f
00000790: 007f f8c3 7a2d bd3f 9e47 40fb 3627 c0bf
000007a0: 7468 eac9 6d1c cbbf 6e35 821f 8b01 c3bf
000007b0: 738c 556c 771d 89bf 93f3 6680 5b1f bfbf
000007c0: 7184 34b1 2aee c6bf 54a8 0794 6102 bdbf
000007d0: db33 2230 844f c23f 0fff 3e2a 9c74 ba3f
000007e0: 2915 78ee c892 d23f 07f8 f8b4 ebdd c53f
000007f0: 831b e04b 170e b2bf 8c61 6ce1 ef5f ce3f

b2 f8 [10]
-0.03183845551506964 0.03132446960584209 0.0146359909607883 -0.003152163987926375 0.020883748046158918 -0.007085988241263632 -0.0007451061767774191 -0.004418849856395181
-0.010006478010116102 -0.009597166825241156
00000000: f87e 624a 214d a0bf 1c14 0bc9 c209 a03f
00000010: 114a 2b74 79f9 8d3f d737 ac27 91d2 69bf
00000020: 282f 819b 8c62 953f 9cda 187c 3206 7dbf
00000030: ebb1 a554 676a 48bf 820b e8f9 7f19 72bf
00000040: f8a8 69be 467e 84bf 4778 30ed ada7 83bf
